…
I0129 10:58:19.548918 22286 net.cpp:322] The NetState phase (0) differed from the phase (1) specified by a rule in layer cifar
I0129 10:58:19.549015 22286 net.cpp:322] The NetState phase (0) differed from the phase (1) specified by a rule in layer accuracy
I0129 10:58:19.549185 22286 net.cpp:49] Initializing net from parameters: 
name: "CIFAR10_quick"
state {
  phase: TRAIN
}
layer {
  name: "cifar"
  type: "Data"
  top: "data"
  top: "label"
  include {
    phase: TRAIN
  }
  transform_param {
    mean_file: "examples/cifar10/mean.binaryproto"
  }
  data_param {
    source: "examples/cifar10/cifar10_train_lmdb"
    batch_size: 100
    backend: LMDB
  }
}
layer {
  name: "conv1"
  type: "Convolution"
  bottom: "data"
  top: "conv1"
  param {
    lr_mult: 1
  }
  param {
    lr_mult: 2
  }
  convolution_param {
    num_output: 32
    pad: 2
    kernel_size: 5
    stride: 1
    weight_filler {
      type: "gaussian"
      std: 0.0001
    }
    bias_filler {
      type: "constant"
    }
  }
}
layer {
  name: "pool1"
  type: "Pooling"
  bottom: "conv1"
  top: "pool1"
  pooling_param {
    pool: MAX
    kernel_size: 3
    stride: 2
  }
}
layer {
  name: "relu1"
  type: "ReLU"
  bottom: "pool1"
  top: "pool1"
}
layer {
  name: "conv2"
  type: "Convolution"
  bottom: "pool1"
  top: "conv2"
  param {
    lr_mult: 1
  }
  param {
    lr_mult: 2
  }
  convolution_param {
    num_output: 32
    pad: 2
    kernel_size: 5
    stride: 1
    weight_filler {
      type: "gaussian"
      std: 0.01
    }
    bias_filler {
      type: "constant"
    }
  }
}
layer {
  name: "relu2"
  type: "ReLU"
  bottom: "conv2"
  top: "conv2"
}
layer {
  name: "pool2"
  type: "Pooling"
  bottom: "conv2"
  top: "pool2"
  pooling_param {
    pool: AVE
    kernel_size: 3
    stride: 2
  }
}
layer {
  name: "conv3"
  type: "Convolution"
  bottom: "pool2"
  top: "conv3"
  param {
    lr_mult: 1
  }
  param {
    lr_mult: 2
  }
  convolution_param {
    num_output: 64
    pad: 2
    kernel_size: 5
    stride: 1
    weight_filler {
      type: "gaussian"
      std: 0.01
    }
    bias_filler {
      type: "constant"
    }
  }
}
layer {
  name: "relu3"
  type: "ReLU"
  bottom: "conv3"
  top: "conv3"
}
layer {
  name: "pool3"
  type: "Pooling"
  bottom: "conv3"
  top: "pool3"
  pooling_param {
    pool: AVE
    kernel_size: 3
    stride: 2
  }
}
layer {
  name: "ip1"
  type: "InnerProduct"
  bottom: "pool3"
  top: "ip1"
  param {
    lr_mult: 1
  }
  param {
    lr_mult: 2
  }
  inner_product_param {
    num_output: 64
    weight_filler {
      type: "gaussian"
      std: 0.1
    }
    bias_filler {
      type: "constant"
    }
  }
}
layer {
  name: "ip2"
  type: "InnerProduct"
  bottom: "ip1"
  top: "ip2"
  param {
    lr_mult: 1
  }
  param {
    lr_mult: 2
  }
  inner_product_param {
    num_output: 10
    weight_filler {
      type: "gaussian"
      std: 0.1
    }
    bias_filler {
      type: "constant"
    }
  }
}
layer {
  name: "loss"
  type: "SoftmaxWithLoss"
  bottom: "ip2"
  bottom: "label"
  top: "loss"
}
I0129 10:58:19.549310 22286 layer_factory.hpp:77] Creating layer cifar
I0129 10:58:19.549760 22286 net.cpp:106] Creating Layer cifar
I0129 10:58:19.549828 22286 net.cpp:411] cifar -> data
I0129 10:58:19.549908 22286 net.cpp:411] cifar -> label
I0129 10:58:19.549984 22286 data_transformer.cpp:25] Loading mean file from: examples/cifar10/mean.binaryproto
I0129 10:58:19.552501 22290 db_lmdb.cpp:38] Opened lmdb examples/cifar10/cifar10_train_lmdb
I0129 10:58:19.590978 22286 data_layer.cpp:41] output data size: 100,3,32,32
I0129 10:58:19.595937 22286 net.cpp:150] Setting up cifar
I0129 10:58:19.596038 22286 net.cpp:157] Top shape: 100 3 32 32 (307200)
I0129 10:58:19.596110 22286 net.cpp:157] Top shape: 100 (100)
I0129 10:58:19.596176 22286 net.cpp:165] Memory required for data: 1229200
I0129 10:58:19.596246 22286 layer_factory.hpp:77] Creating layer conv1
I0129 10:58:19.596338 22286 net.cpp:106] Creating Layer conv1
I0129 10:58:19.596401 22286 net.cpp:454] conv1 <- data
I0129 10:58:19.596477 22286 net.cpp:411] conv1 -> conv1
I0129 10:58:19.597188 22286 net.cpp:150] Setting up conv1
I0129 10:58:19.597254 22286 net.cpp:157] Top shape: 100 32 32 32 (3276800)
I0129 10:58:19.597326 22286 net.cpp:165] Memory required for data: 14336400
I0129 10:58:19.597409 22286 layer_factory.hpp:77] Creating layer pool1
I0129 10:58:19.597486 22286 net.cpp:106] Creating Layer pool1
I0129 10:58:19.597554 22286 net.cpp:454] pool1 <- conv1
I0129 10:58:19.597637 22286 net.cpp:411] pool1 -> pool1
I0129 10:58:19.597780 22286 net.cpp:150] Setting up pool1
I0129 10:58:19.597865 22286 net.cpp:157] Top shape: 100 32 16 16 (819200)
I0129 10:58:19.597946 22286 net.cpp:165] Memory required for data: 17613200
I0129 10:58:19.598023 22286 layer_factory.hpp:77] Creating layer relu1
I0129 10:58:19.598109 22286 net.cpp:106] Creating Layer relu1
I0129 10:58:19.598188 22286 net.cpp:454] relu1 <- pool1
I0129 10:58:19.598264 22286 net.cpp:397] relu1 -> pool1 (in-place)
I0129 10:58:19.598350 22286 net.cpp:150] Setting up relu1
I0129 10:58:19.598430 22286 net.cpp:157] Top shape: 100 32 16 16 (819200)
I0129 10:58:19.598510 22286 net.cpp:165] Memory required for data: 20890000
I0129 10:58:19.598585 22286 layer_factory.hpp:77] Creating layer conv2
I0129 10:58:19.598670 22286 net.cpp:106] Creating Layer conv2
I0129 10:58:19.598747 22286 net.cpp:454] conv2 <- pool1
I0129 10:58:19.598829 22286 net.cpp:411] conv2 -> conv2
I0129 10:58:19.600440 22286 net.cpp:150] Setting up conv2
I0129 10:58:19.600533 22286 net.cpp:157] Top shape: 100 32 16 16 (819200)
I0129 10:58:19.600608 22286 net.cpp:165] Memory required for data: 24166800
I0129 10:58:19.600695 22286 layer_factory.hpp:77] Creating layer relu2
I0129 10:58:19.600777 22286 net.cpp:106] Creating Layer relu2
I0129 10:58:19.600841 22286 net.cpp:454] relu2 <- conv2
I0129 10:58:19.600908 22286 net.cpp:397] relu2 -> conv2 (in-place)
I0129 10:58:19.600977 22286 net.cpp:150] Setting up relu2
I0129 10:58:19.601034 22286 net.cpp:157] Top shape: 100 32 16 16 (819200)
I0129 10:58:19.601089 22286 net.cpp:165] Memory required for data: 27443600
I0129 10:58:19.601147 22286 layer_factory.hpp:77] Creating layer pool2
I0129 10:58:19.601212 22286 net.cpp:106] Creating Layer pool2
I0129 10:58:19.601264 22286 net.cpp:454] pool2 <- conv2
I0129 10:58:19.601323 22286 net.cpp:411] pool2 -> pool2
I0129 10:58:19.601402 22286 net.cpp:150] Setting up pool2
I0129 10:58:19.601459 22286 net.cpp:157] Top shape: 100 32 8 8 (204800)
I0129 10:58:19.601559 22286 net.cpp:165] Memory required for data: 28262800
I0129 10:58:19.601616 22286 layer_factory.hpp:77] Creating layer conv3
I0129 10:58:19.601687 22286 net.cpp:106] Creating Layer conv3
I0129 10:58:19.601744 22286 net.cpp:454] conv3 <- pool2
I0129 10:58:19.601805 22286 net.cpp:411] conv3 -> conv3
I0129 10:58:19.603801 22286 net.cpp:150] Setting up conv3
I0129 10:58:19.603904 22286 net.cpp:157] Top shape: 100 64 8 8 (409600)
I0129 10:58:19.603981 22286 net.cpp:165] Memory required for data: 29901200
I0129 10:58:19.604064 22286 layer_factory.hpp:77] Creating layer relu3
I0129 10:58:19.604141 22286 net.cpp:106] Creating Layer relu3
I0129 10:58:19.604203 22286 net.cpp:454] relu3 <- conv3
I0129 10:58:19.604255 22286 net.cpp:397] relu3 -> conv3 (in-place)
I0129 10:58:19.604302 22286 net.cpp:150] Setting up relu3
I0129 10:58:19.604343 22286 net.cpp:157] Top shape: 100 64 8 8 (409600)
I0129 10:58:19.604382 22286 net.cpp:165] Memory required for data: 31539600
I0129 10:58:19.604424 22286 layer_factory.hpp:77] Creating layer pool3
I0129 10:58:19.604467 22286 net.cpp:106] Creating Layer pool3
I0129 10:58:19.604512 22286 net.cpp:454] pool3 <- conv3
I0129 10:58:19.604558 22286 net.cpp:411] pool3 -> pool3
I0129 10:58:19.604636 22286 net.cpp:150] Setting up pool3
I0129 10:58:19.604684 22286 net.cpp:157] Top shape: 100 64 4 4 (102400)
I0129 10:58:19.604723 22286 net.cpp:165] Memory required for data: 31949200
I0129 10:58:19.604763 22286 layer_factory.hpp:77] Creating layer ip1
I0129 10:58:19.604807 22286 net.cpp:106] Creating Layer ip1
I0129 10:58:19.604847 22286 net.cpp:454] ip1 <- pool3
I0129 10:58:19.604894 22286 net.cpp:411] ip1 -> ip1
I0129 10:58:19.606706 22286 net.cpp:150] Setting up ip1
I0129 10:58:19.606762 22286 net.cpp:157] Top shape: 100 64 (6400)
I0129 10:58:19.606813 22286 net.cpp:165] Memory required for data: 31974800
I0129 10:58:19.606868 22286 layer_factory.hpp:77] Creating layer ip2
I0129 10:58:19.606925 22286 net.cpp:106] Creating Layer ip2
I0129 10:58:19.606976 22286 net.cpp:454] ip2 <- ip1
I0129 10:58:19.607028 22286 net.cpp:411] ip2 -> ip2
I0129 10:58:19.607166 22286 net.cpp:150] Setting up ip2
I0129 10:58:19.607218 22286 net.cpp:157] Top shape: 100 10 (1000)
I0129 10:58:19.607269 22286 net.cpp:165] Memory required for data: 31978800
I0129 10:58:19.607326 22286 layer_factory.hpp:77] Creating layer loss
I0129 10:58:19.607380 22286 net.cpp:106] Creating Layer loss
I0129 10:58:19.607431 22286 net.cpp:454] loss <- ip2
I0129 10:58:19.607481 22286 net.cpp:454] loss <- label
I0129 10:58:19.607534 22286 net.cpp:411] loss -> loss
I0129 10:58:19.607595 22286 layer_factory.hpp:77] Creating layer loss
…
I0129 10:58:19.610756 22286 solver.cpp:181] Creating test net (#0) specified by net file: examples/cifar10/cifar10_quick_train_test.prototxt
I0129 10:58:19.610831 22286 net.cpp:322] The NetState phase (1) differed from the phase (0) specified by a rule in layer cifar
I0129 10:58:19.610993 22286 net.cpp:49] Initializing net from parameters: 
name: "CIFAR10_quick"
state {
  phase: TEST
}
layer {
  name: "cifar"
  type: "Data"
  top: "data"
  top: "label"
  include {
    phase: TEST
  }
  transform_param {
    mean_file: "examples/cifar10/mean.binaryproto"
  }
  data_param {
    source: "examples/cifar10/cifar10_test_lmdb"
    batch_size: 100
    backend: LMDB
  }
}
layer {
  name: "conv1"
  type: "Convolution"
  bottom: "data"
  top: "conv1"
  param {
    lr_mult: 1
  }
  param {
    lr_mult: 2
  }
  convolution_param {
    num_output: 32
    pad: 2
    kernel_size: 5
    stride: 1
    weight_filler {
      type: "gaussian"
      std: 0.0001
    }
    bias_filler {
      type: "constant"
    }
  }
}
layer {
  name: "pool1"
  type: "Pooling"
  bottom: "conv1"
  top: "pool1"
  pooling_param {
    pool: MAX
    kernel_size: 3
    stride: 2
  }
}
layer {
  name: "relu1"
  type: "ReLU"
  bottom: "pool1"
  top: "pool1"
}
layer {
  name: "conv2"
  type: "Convolution"
  bottom: "pool1"
  top: "conv2"
  param {
    lr_mult: 1
  }
  param {
    lr_mult: 2
  }
  convolution_param {
    num_output: 32
    pad: 2
    kernel_size: 5
    stride: 1
    weight_filler {
      type: "gaussian"
      std: 0.01
    }
    bias_filler {
      type: "constant"
    }
  }
}
layer {
  name: "relu2"
  type: "ReLU"
  bottom: "conv2"
  top: "conv2"
}
layer {
  name: "pool2"
  type: "Pooling"
  bottom: "conv2"
  top: "pool2"
  pooling_param {
    pool: AVE
    kernel_size: 3
    stride: 2
  }
}
layer {
  name: "conv3"
  type: "Convolution"
  bottom: "pool2"
  top: "conv3"
  param {
    lr_mult: 1
  }
  param {
    lr_mult: 2
  }
  convolution_param {
    num_output: 64
    pad: 2
    kernel_size: 5
    stride: 1
    weight_filler {
      type: "gaussian"
      std: 0.01
    }
    bias_filler {
      type: "constant"
    }
  }
}
layer {
  name: "relu3"
  type: "ReLU"
  bottom: "conv3"
  top: "conv3"
}
layer {
  name: "pool3"
  type: "Pooling"
  bottom: "conv3"
  top: "pool3"
  pooling_param {
    pool: AVE
    kernel_size: 3
    stride: 2
  }
}
layer {
  name: "ip1"
  type: "InnerProduct"
  bottom: "pool3"
  top: "ip1"
  param {
    lr_mult: 1
  }
  param {
    lr_mult: 2
  }
  inner_product_param {
    num_output: 64
    weight_filler {
      type: "gaussian"
      std: 0.1
    }
    bias_filler {
      type: "constant"
    }
  }
}
layer {
  name: "ip2"
  type: "InnerProduct"
  bottom: "ip1"
  top: "ip2"
  param {
    lr_mult: 1
  }
  param {
    lr_mult: 2
  }
  inner_product_param {
    num_output: 10
    weight_filler {
      type: "gaussian"
      std: 0.1
    }
    bias_filler {
      type: "constant"
    }
  }
}
layer {
  name: "accuracy"
  type: "Accuracy"
  bottom: "ip2"
  bottom: "label"
  top: "accuracy"
  include {
    phase: TEST
  }
}
layer {
  name: "loss"
  type: "SoftmaxWithLoss"
  bottom: "ip2"
  bottom: "label"
  top: "loss"
}
I0129 10:58:19.611126 22286 layer_factory.hpp:77] Creating layer cifar
I0129 10:58:19.611268 22286 net.cpp:106] Creating Layer cifar
I0129 10:58:19.611325 22286 net.cpp:411] cifar -> data
I0129 10:58:19.611383 22286 net.cpp:411] cifar -> label
I0129 10:58:19.611443 22286 data_transformer.cpp:25] Loading mean file from: examples/cifar10/mean.binaryproto
I0129 10:58:19.613988 22292 db_lmdb.cpp:38] Opened lmdb examples/cifar10/cifar10_test_lmdb
I0129 10:58:19.614115 22286 data_layer.cpp:41] output data size: 100,3,32,32
I0129 10:58:19.619274 22286 net.cpp:150] Setting up cifar
I0129 10:58:19.619375 22286 net.cpp:157] Top shape: 100 3 32 32 (307200)
I0129 10:58:19.619454 22286 net.cpp:157] Top shape: 100 (100)
I0129 10:58:19.619523 22286 net.cpp:165] Memory required for data: 1229200
I0129 10:58:19.619586 22286 layer_factory.hpp:77] Creating layer label_cifar_1_split
I0129 10:58:19.619658 22286 net.cpp:106] Creating Layer label_cifar_1_split
I0129 10:58:19.619714 22286 net.cpp:454] label_cifar_1_split <- label
I0129 10:58:19.619782 22286 net.cpp:411] label_cifar_1_split -> label_cifar_1_split_0
I0129 10:58:19.619853 22286 net.cpp:411] label_cifar_1_split -> label_cifar_1_split_1
I0129 10:58:19.619954 22286 net.cpp:150] Setting up label_cifar_1_split
I0129 10:58:19.620012 22286 net.cpp:157] Top shape: 100 (100)
I0129 10:58:19.620064 22286 net.cpp:157] Top shape: 100 (100)
I0129 10:58:19.620120 22286 net.cpp:165] Memory required for data: 1230000
I0129 10:58:19.620172 22286 layer_factory.hpp:77] Creating layer conv1
I0129 10:58:19.620234 22286 net.cpp:106] Creating Layer conv1
I0129 10:58:19.620286 22286 net.cpp:454] conv1 <- data
I0129 10:58:19.620340 22286 net.cpp:411] conv1 -> conv1
I0129 10:58:19.620821 22286 net.cpp:150] Setting up conv1
I0129 10:58:19.620898 22286 net.cpp:157] Top shape: 100 32 32 32 (3276800)
I0129 10:58:19.620978 22286 net.cpp:165] Memory required for data: 14337200
I0129 10:58:19.621074 22286 layer_factory.hpp:77] Creating layer pool1
I0129 10:58:19.621156 22286 net.cpp:106] Creating Layer pool1
I0129 10:58:19.621227 22286 net.cpp:454] pool1 <- conv1
I0129 10:58:19.621309 22286 net.cpp:411] pool1 -> pool1
I0129 10:58:19.621434 22286 net.cpp:150] Setting up pool1
I0129 10:58:19.621552 22286 net.cpp:157] Top shape: 100 32 16 16 (819200)
I0129 10:58:19.621634 22286 net.cpp:165] Memory required for data: 17614000
I0129 10:58:19.621701 22286 layer_factory.hpp:77] Creating layer relu1
I0129 10:58:19.621786 22286 net.cpp:106] Creating Layer relu1
I0129 10:58:19.621865 22286 net.cpp:454] relu1 <- pool1
I0129 10:58:19.621951 22286 net.cpp:397] relu1 -> pool1 (in-place)
I0129 10:58:19.622035 22286 net.cpp:150] Setting up relu1
I0129 10:58:19.622104 22286 net.cpp:157] Top shape: 100 32 16 16 (819200)
I0129 10:58:19.622186 22286 net.cpp:165] Memory required for data: 20890800
I0129 10:58:19.622268 22286 layer_factory.hpp:77] Creating layer conv2
I0129 10:58:19.622365 22286 net.cpp:106] Creating Layer conv2
I0129 10:58:19.622447 22286 net.cpp:454] conv2 <- pool1
I0129 10:58:19.622524 22286 net.cpp:411] conv2 -> conv2
I0129 10:58:19.623589 22286 net.cpp:150] Setting up conv2
I0129 10:58:19.623682 22286 net.cpp:157] Top shape: 100 32 16 16 (819200)
I0129 10:58:19.623750 22286 net.cpp:165] Memory required for data: 24167600
I0129 10:58:19.623839 22286 layer_factory.hpp:77] Creating layer relu2
I0129 10:58:19.623915 22286 net.cpp:106] Creating Layer relu2
I0129 10:58:19.623993 22286 net.cpp:454] relu2 <- conv2
I0129 10:58:19.624073 22286 net.cpp:397] relu2 -> conv2 (in-place)
I0129 10:58:19.624153 22286 net.cpp:150] Setting up relu2
I0129 10:58:19.624236 22286 net.cpp:157] Top shape: 100 32 16 16 (819200)
I0129 10:58:19.624307 22286 net.cpp:165] Memory required for data: 27444400
I0129 10:58:19.624384 22286 layer_factory.hpp:77] Creating layer pool2
I0129 10:58:19.624456 22286 net.cpp:106] Creating Layer pool2
I0129 10:58:19.624536 22286 net.cpp:454] pool2 <- conv2
I0129 10:58:19.624613 22286 net.cpp:411] pool2 -> pool2
I0129 10:58:19.624704 22286 net.cpp:150] Setting up pool2
I0129 10:58:19.624781 22286 net.cpp:157] Top shape: 100 32 8 8 (204800)
I0129 10:58:19.624862 22286 net.cpp:165] Memory required for data: 28263600
I0129 10:58:19.624945 22286 layer_factory.hpp:77] Creating layer conv3
I0129 10:58:19.625042 22286 net.cpp:106] Creating Layer conv3
I0129 10:58:19.625110 22286 net.cpp:454] conv3 <- pool2
I0129 10:58:19.625188 22286 net.cpp:411] conv3 -> conv3
I0129 10:58:19.627249 22286 net.cpp:150] Setting up conv3
I0129 10:58:19.627329 22286 net.cpp:157] Top shape: 100 64 8 8 (409600)
I0129 10:58:19.627401 22286 net.cpp:165] Memory required for data: 29902000
I0129 10:58:19.627488 22286 layer_factory.hpp:77] Creating layer relu3
I0129 10:58:19.627547 22286 net.cpp:106] Creating Layer relu3
I0129 10:58:19.627598 22286 net.cpp:454] relu3 <- conv3
I0129 10:58:19.627651 22286 net.cpp:397] relu3 -> conv3 (in-place)
I0129 10:58:19.627703 22286 net.cpp:150] Setting up relu3
I0129 10:58:19.627761 22286 net.cpp:157] Top shape: 100 64 8 8 (409600)
I0129 10:58:19.627811 22286 net.cpp:165] Memory required for data: 31540400
I0129 10:58:19.627862 22286 layer_factory.hpp:77] Creating layer pool3
I0129 10:58:19.627918 22286 net.cpp:106] Creating Layer pool3
I0129 10:58:19.627966 22286 net.cpp:454] pool3 <- conv3
I0129 10:58:19.628026 22286 net.cpp:411] pool3 -> pool3
I0129 10:58:19.628098 22286 net.cpp:150] Setting up pool3
I0129 10:58:19.628149 22286 net.cpp:157] Top shape: 100 64 4 4 (102400)
I0129 10:58:19.628197 22286 net.cpp:165] Memory required for data: 31950000
I0129 10:58:19.628247 22286 layer_factory.hpp:77] Creating layer ip1
I0129 10:58:19.628305 22286 net.cpp:106] Creating Layer ip1
I0129 10:58:19.628357 22286 net.cpp:454] ip1 <- pool3
I0129 10:58:19.628414 22286 net.cpp:411] ip1 -> ip1
I0129 10:58:19.630659 22286 net.cpp:150] Setting up ip1
I0129 10:58:19.630717 22286 net.cpp:157] Top shape: 100 64 (6400)
I0129 10:58:19.630774 22286 net.cpp:165] Memory required for data: 31975600
I0129 10:58:19.630831 22286 layer_factory.hpp:77] Creating layer ip2
I0129 10:58:19.630884 22286 net.cpp:106] Creating Layer ip2
I0129 10:58:19.630931 22286 net.cpp:454] ip2 <- ip1
I0129 10:58:19.630991 22286 net.cpp:411] ip2 -> ip2
I0129 10:58:19.631145 22286 net.cpp:150] Setting up ip2
I0129 10:58:19.631218 22286 net.cpp:157] Top shape: 100 10 (1000)
I0129 10:58:19.631266 22286 net.cpp:165] Memory required for data: 31979600
I0129 10:58:19.631324 22286 layer_factory.hpp:77] Creating layer ip2_ip2_0_split
I0129 10:58:19.631377 22286 net.cpp:106] Creating Layer ip2_ip2_0_split
I0129 10:58:19.631436 22286 net.cpp:454] ip2_ip2_0_split <- ip2
I0129 10:58:19.631492 22286 net.cpp:411] ip2_ip2_0_split -> ip2_ip2_0_split_0
I0129 10:58:19.631547 22286 net.cpp:411] ip2_ip2_0_split -> ip2_ip2_0_split_1
I0129 10:58:19.631624 22286 net.cpp:150] Setting up ip2_ip2_0_split
I0129 10:58:19.631678 22286 net.cpp:157] Top shape: 100 10 (1000)
I0129 10:58:19.631737 22286 net.cpp:157] Top shape: 100 10 (1000)
I0129 10:58:19.631789 22286 net.cpp:165] Memory required for data: 31987600
I0129 10:58:19.631839 22286 layer_factory.hpp:77] Creating layer accuracy
I0129 10:58:19.631894 22286 net.cpp:106] Creating Layer accuracy
I0129 10:58:19.631944 22286 net.cpp:454] accuracy <- ip2_ip2_0_split_0
I0129 10:58:19.632002 22286 net.cpp:454] accuracy <- label_cifar_1_split_0
I0129 10:58:19.632055 22286 net.cpp:411] accuracy -> accuracy
…
