…
I0224 14:10:17.890796 19313 net.cpp:322] The NetState phase (0) differed from the phase (1) specified by a rule in layer accuracy
I0224 14:10:17.891027 19313 net.cpp:49] Initializing net from parameters: 
name: "CaffeNet"
state {
  phase: TRAIN
}
layer {
  name: "data"
  type: "Data"
  top: "data"
  top: "label"
  include {
    phase: TRAIN
  }
  transform_param {
    mirror: true
    crop_size: 227
    mean_file: "data/ilsvrc12/half_imagenet_mean.binaryproto"
  }
  data_param {
    source: "examples/imagenet/half_ilsvrc12_train_lmdb"
    batch_size: 256
    backend: LMDB
  }
}
layer {
  name: "conv1"
  type: "Convolution"
  bottom: "data"
  top: "conv1"
  param {
    lr_mult: 1
    decay_mult: 1
  }
  param {
    lr_mult: 2
    decay_mult: 0
  }
  convolution_param {
    num_output: 96
    kernel_size: 11
    stride: 4
    weight_filler {
      type: "gaussian"
      std: 0.01
    }
    bias_filler {
      type: "constant"
      value: 0
    }
  }
}
layer {
  name: "relu1"
  type: "ReLU"
  bottom: "conv1"
  top: "conv1"
}
layer {
  name: "pool1"
  type: "Pooling"
  bottom: "conv1"
  top: "pool1"
  pooling_param {
    pool: MAX
    kernel_size: 3
    stride: 2
  }
}
layer {
  name: "norm1"
  type: "LRN"
  bottom: "pool1"
  top: "norm1"
  lrn_param {
    local_size: 5
    alpha: 0.0001
    beta: 0.75
  }
}
layer {
  name: "conv2"
  type: "Convolution"
  bottom: "norm1"
  top: "conv2"
  param {
    lr_mult: 1
    decay_mult: 1
  }
  param {
    lr_mult: 2
    decay_mult: 0
  }
  convolution_param {
    num_output: 256
    pad: 2
    kernel_size: 5
    group: 2
    weight_filler {
      type: "gaussian"
      std: 0.01
    }
    bias_filler {
      type: "constant"
      value: 1
    }
  }
}
layer {
  name: "relu2"
  type: "ReLU"
  bottom: "conv2"
  top: "conv2"
}
layer {
  name: "pool2"
  type: "Pooling"
  bottom: "conv2"
  top: "pool2"
  pooling_param {
    pool: MAX
    kernel_size: 3
    stride: 2
  }
}
layer {
  name: "norm2"
  type: "LRN"
  bottom: "pool2"
  top: "norm2"
  lrn_param {
    local_size: 5
    alpha: 0.0001
    beta: 0.75
  }
}
layer {
  name: "conv3"
  type: "Convolution"
  bottom: "norm2"
  top: "conv3"
  param {
    lr_mult: 1
    decay_mult: 1
  }
  param {
    lr_mult: 2
    decay_mult: 0
  }
  convolution_param {
    num_output: 384
    pad: 1
    kernel_size: 3
    weight_filler {
      type: "gaussian"
      std: 0.01
    }
    bias_filler {
      type: "constant"
      value: 0
    }
  }
}
layer {
  name: "relu3"
  type: "ReLU"
  bottom: "conv3"
  top: "conv3"
}
layer {
  name: "conv4"
  type: "Convolution"
  bottom: "conv3"
  top: "conv4"
  param {
    lr_mult: 1
    decay_mult: 1
  }
  param {
    lr_mult: 2
    decay_mult: 0
  }
  convolution_param {
    num_output: 384
    pad: 1
    kernel_size: 3
    group: 2
    weight_filler {
      type: "gaussian"
      std: 0.01
    }
    bias_filler {
      type: "constant"
      value: 1
    }
  }
}
layer {
  name: "relu4"
  type: "ReLU"
  bottom: "conv4"
  top: "conv4"
}
layer {
  name: "conv5"
  type: "Convolution"
  bottom: "conv4"
  top: "conv5"
  param {
    lr_mult: 1
    decay_mult: 1
  }
  param {
    lr_mult: 2
    decay_mult: 0
  }
  convolution_param {
    num_output: 256
    pad: 1
    kernel_size: 3
    group: 2
    weight_filler {
      type: "gaussian"
      std: 0.01
    }
    bias_filler {
      type: "constant"
      value: 1
    }
  }
}
layer {
  name: "relu5"
  type: "ReLU"
  bottom: "conv5"
  top: "conv5"
}
layer {
  name: "pool5"
  type: "Pooling"
  bottom: "conv5"
  top: "pool5"
  pooling_param {
    pool: MAX
    kernel_size: 3
    stride: 2
  }
}
layer {
  name: "fc6"
  type: "InnerProduct"
  bottom: "pool5"
  top: "fc6"
  param {
    lr_mult: 1
    decay_mult: 1
  }
  param {
    lr_mult: 2
    decay_mult: 0
  }
  inner_product_param {
    num_output: 4096
    weight_filler {
      type: "gaussian"
      std: 0.005
    }
    bias_filler {
      type: "constant"
      value: 1
    }
  }
}
layer {
  name: "relu6"
  type: "ReLU"
  bottom: "fc6"
  top: "fc6"
}
layer {
  name: "drop6"
  type: "Dropout"
  bottom: "fc6"
  top: "fc6"
  dropout_param {
    dropout_ratio: 0.5
  }
}
layer {
  name: "fc7"
  type: "InnerProduct"
  bottom: "fc6"
  top: "fc7"
  param {
    lr_mult: 1
    decay_mult: 1
  }
  param {
    lr_mult: 2
    decay_mult: 0
  }
  inner_product_param {
    num_output: 4096
    weight_filler {
      type: "gaussian"
      std: 0.005
    }
    bias_filler {
      type: "constant"
      value: 1
    }
  }
}
layer {
  name: "relu7"
  type: "ReLU"
  bottom: "fc7"
  top: "fc7"
}
layer {
  name: "drop7"
  type: "Dropout"
  bottom: "fc7"
  top: "fc7"
  dropout_param {
    dropout_ratio: 0.5
  }
}
layer {
  name: "fc8"
  type: "InnerProduct"
  bottom: "fc7"
  top: "fc8"
  param {
    lr_mult: 1
    decay_mult: 1
  }
  param {
    lr_mult: 2
    decay_mult: 0
  }
  inner_product_param {
    num_output: 25
    weight_filler {
      type: "gaussian"
      std: 0.01
    }
    bias_filler {
      type: "constant"
      value: 0
    }
  }
}
layer {
  name: "loss"
  type: "SoftmaxWithLoss"
  bottom: "fc8"
  bottom: "label"
  top: "loss"
}
I0224 14:10:17.891199 19313 layer_factory.hpp:77] Creating layer data
I0224 14:10:17.891917 19313 net.cpp:106] Creating Layer data
I0224 14:10:17.891963 19313 net.cpp:411] data -> data
I0224 14:10:17.892024 19313 net.cpp:411] data -> label
I0224 14:10:17.892081 19313 data_transformer.cpp:25] Loading mean file from: data/ilsvrc12/half_imagenet_mean.binaryproto
I0224 14:10:17.894642 19316 db_lmdb.cpp:38] Opened lmdb examples/imagenet/half_ilsvrc12_train_lmdb
I0224 14:10:17.904351 19313 data_layer.cpp:41] output data size: 256,3,227,227
I0224 14:10:18.091436 19313 net.cpp:150] Setting up data
I0224 14:10:18.091574 19313 net.cpp:157] Top shape: 256 3 227 227 (39574272)
I0224 14:10:18.091657 19313 net.cpp:157] Top shape: 256 (256)
I0224 14:10:18.091739 19313 net.cpp:165] Memory required for data: 158298112
I0224 14:10:18.091831 19313 layer_factory.hpp:77] Creating layer conv1
I0224 14:10:18.091935 19313 net.cpp:106] Creating Layer conv1
I0224 14:10:18.092007 19313 net.cpp:454] conv1 <- data
I0224 14:10:18.092064 19313 net.cpp:411] conv1 -> conv1
I0224 14:10:18.218453 19313 net.cpp:150] Setting up conv1
I0224 14:10:18.218647 19313 net.cpp:157] Top shape: 256 96 55 55 (74342400)
I0224 14:10:18.218796 19313 net.cpp:165] Memory required for data: 455667712
I0224 14:10:18.218899 19313 layer_factory.hpp:77] Creating layer relu1
I0224 14:10:18.218983 19313 net.cpp:106] Creating Layer relu1
I0224 14:10:18.219061 19313 net.cpp:454] relu1 <- conv1
I0224 14:10:18.219107 19313 net.cpp:397] relu1 -> conv1 (in-place)
I0224 14:10:18.219333 19313 net.cpp:150] Setting up relu1
I0224 14:10:18.219388 19313 net.cpp:157] Top shape: 256 96 55 55 (74342400)
I0224 14:10:18.219429 19313 net.cpp:165] Memory required for data: 753037312
I0224 14:10:18.219467 19313 layer_factory.hpp:77] Creating layer pool1
I0224 14:10:18.219509 19313 net.cpp:106] Creating Layer pool1
I0224 14:10:18.219547 19313 net.cpp:454] pool1 <- conv1
I0224 14:10:18.219588 19313 net.cpp:411] pool1 -> pool1
I0224 14:10:18.219672 19313 net.cpp:150] Setting up pool1
I0224 14:10:18.219714 19313 net.cpp:157] Top shape: 256 96 27 27 (17915904)
I0224 14:10:18.219753 19313 net.cpp:165] Memory required for data: 824700928
I0224 14:10:18.219790 19313 layer_factory.hpp:77] Creating layer norm1
I0224 14:10:18.219837 19313 net.cpp:106] Creating Layer norm1
I0224 14:10:18.219876 19313 net.cpp:454] norm1 <- pool1
I0224 14:10:18.219919 19313 net.cpp:411] norm1 -> norm1
I0224 14:10:18.220283 19313 net.cpp:150] Setting up norm1
I0224 14:10:18.220329 19313 net.cpp:157] Top shape: 256 96 27 27 (17915904)
I0224 14:10:18.220368 19313 net.cpp:165] Memory required for data: 896364544
I0224 14:10:18.220407 19313 layer_factory.hpp:77] Creating layer conv2
I0224 14:10:18.220454 19313 net.cpp:106] Creating Layer conv2
I0224 14:10:18.220497 19313 net.cpp:454] conv2 <- norm1
I0224 14:10:18.220540 19313 net.cpp:411] conv2 -> conv2
I0224 14:10:18.230840 19313 net.cpp:150] Setting up conv2
I0224 14:10:18.230940 19313 net.cpp:157] Top shape: 256 256 27 27 (47775744)
I0224 14:10:18.231000 19313 net.cpp:165] Memory required for data: 1087467520
I0224 14:10:18.231063 19313 layer_factory.hpp:77] Creating layer relu2
I0224 14:10:18.231119 19313 net.cpp:106] Creating Layer relu2
I0224 14:10:18.231170 19313 net.cpp:454] relu2 <- conv2
I0224 14:10:18.231225 19313 net.cpp:397] relu2 -> conv2 (in-place)
I0224 14:10:18.231416 19313 net.cpp:150] Setting up relu2
I0224 14:10:18.231473 19313 net.cpp:157] Top shape: 256 256 27 27 (47775744)
I0224 14:10:18.231523 19313 net.cpp:165] Memory required for data: 1278570496
I0224 14:10:18.231570 19313 layer_factory.hpp:77] Creating layer pool2
I0224 14:10:18.231621 19313 net.cpp:106] Creating Layer pool2
I0224 14:10:18.231668 19313 net.cpp:454] pool2 <- conv2
I0224 14:10:18.231719 19313 net.cpp:411] pool2 -> pool2
I0224 14:10:18.231804 19313 net.cpp:150] Setting up pool2
I0224 14:10:18.231855 19313 net.cpp:157] Top shape: 256 256 13 13 (11075584)
I0224 14:10:18.231904 19313 net.cpp:165] Memory required for data: 1322872832
I0224 14:10:18.231950 19313 layer_factory.hpp:77] Creating layer norm2
I0224 14:10:18.232005 19313 net.cpp:106] Creating Layer norm2
I0224 14:10:18.232054 19313 net.cpp:454] norm2 <- pool2
I0224 14:10:18.232103 19313 net.cpp:411] norm2 -> norm2
I0224 14:10:18.232415 19313 net.cpp:150] Setting up norm2
I0224 14:10:18.232470 19313 net.cpp:157] Top shape: 256 256 13 13 (11075584)
I0224 14:10:18.232516 19313 net.cpp:165] Memory required for data: 1367175168
I0224 14:10:18.232564 19313 layer_factory.hpp:77] Creating layer conv3
I0224 14:10:18.232625 19313 net.cpp:106] Creating Layer conv3
I0224 14:10:18.232674 19313 net.cpp:454] conv3 <- norm2
I0224 14:10:18.232724 19313 net.cpp:411] conv3 -> conv3
I0224 14:10:18.257026 19313 net.cpp:150] Setting up conv3
I0224 14:10:18.257141 19313 net.cpp:157] Top shape: 256 384 13 13 (16613376)
I0224 14:10:18.257189 19313 net.cpp:165] Memory required for data: 1433628672
I0224 14:10:18.257244 19313 layer_factory.hpp:77] Creating layer relu3
I0224 14:10:18.257293 19313 net.cpp:106] Creating Layer relu3
I0224 14:10:18.257336 19313 net.cpp:454] relu3 <- conv3
I0224 14:10:18.257381 19313 net.cpp:397] relu3 -> conv3 (in-place)
I0224 14:10:18.257666 19313 net.cpp:150] Setting up relu3
I0224 14:10:18.257711 19313 net.cpp:157] Top shape: 256 384 13 13 (16613376)
I0224 14:10:18.257755 19313 net.cpp:165] Memory required for data: 1500082176
I0224 14:10:18.257793 19313 layer_factory.hpp:77] Creating layer conv4
I0224 14:10:18.257841 19313 net.cpp:106] Creating Layer conv4
I0224 14:10:18.257879 19313 net.cpp:454] conv4 <- conv3
I0224 14:10:18.257922 19313 net.cpp:411] conv4 -> conv4
I0224 14:10:18.277246 19313 net.cpp:150] Setting up conv4
I0224 14:10:18.277333 19313 net.cpp:157] Top shape: 256 384 13 13 (16613376)
I0224 14:10:18.277375 19313 net.cpp:165] Memory required for data: 1566535680
I0224 14:10:18.277421 19313 layer_factory.hpp:77] Creating layer relu4
I0224 14:10:18.277472 19313 net.cpp:106] Creating Layer relu4
I0224 14:10:18.277513 19313 net.cpp:454] relu4 <- conv4
I0224 14:10:18.277552 19313 net.cpp:397] relu4 -> conv4 (in-place)
I0224 14:10:18.277730 19313 net.cpp:150] Setting up relu4
I0224 14:10:18.277772 19313 net.cpp:157] Top shape: 256 384 13 13 (16613376)
I0224 14:10:18.277809 19313 net.cpp:165] Memory required for data: 1632989184
I0224 14:10:18.277847 19313 layer_factory.hpp:77] Creating layer conv5
I0224 14:10:18.277894 19313 net.cpp:106] Creating Layer conv5
I0224 14:10:18.277936 19313 net.cpp:454] conv5 <- conv4
I0224 14:10:18.278014 19313 net.cpp:411] conv5 -> conv5
I0224 14:10:18.291658 19313 net.cpp:150] Setting up conv5
I0224 14:10:18.291730 19313 net.cpp:157] Top shape: 256 256 13 13 (11075584)
I0224 14:10:18.291779 19313 net.cpp:165] Memory required for data: 1677291520
I0224 14:10:18.291829 19313 layer_factory.hpp:77] Creating layer relu5
I0224 14:10:18.291875 19313 net.cpp:106] Creating Layer relu5
I0224 14:10:18.291921 19313 net.cpp:454] relu5 <- conv5
I0224 14:10:18.291967 19313 net.cpp:397] relu5 -> conv5 (in-place)
I0224 14:10:18.292145 19313 net.cpp:150] Setting up relu5
I0224 14:10:18.292207 19313 net.cpp:157] Top shape: 256 256 13 13 (11075584)
I0224 14:10:18.292251 19313 net.cpp:165] Memory required for data: 1721593856
I0224 14:10:18.292294 19313 layer_factory.hpp:77] Creating layer pool5
I0224 14:10:18.292337 19313 net.cpp:106] Creating Layer pool5
I0224 14:10:18.292376 19313 net.cpp:454] pool5 <- conv5
I0224 14:10:18.292418 19313 net.cpp:411] pool5 -> pool5
I0224 14:10:18.292498 19313 net.cpp:150] Setting up pool5
I0224 14:10:18.292548 19313 net.cpp:157] Top shape: 256 256 6 6 (2359296)
I0224 14:10:18.292606 19313 net.cpp:165] Memory required for data: 1731031040
I0224 14:10:18.292654 19313 layer_factory.hpp:77] Creating layer fc6
I0224 14:10:18.292713 19313 net.cpp:106] Creating Layer fc6
I0224 14:10:18.292758 19313 net.cpp:454] fc6 <- pool5
I0224 14:10:18.292805 19313 net.cpp:411] fc6 -> fc6
I0224 14:10:19.282901 19313 net.cpp:150] Setting up fc6
I0224 14:10:19.283023 19313 net.cpp:157] Top shape: 256 4096 (1048576)
I0224 14:10:19.283092 19313 net.cpp:165] Memory required for data: 1735225344
I0224 14:10:19.283186 19313 layer_factory.hpp:77] Creating layer relu6
I0224 14:10:19.283272 19313 net.cpp:106] Creating Layer relu6
I0224 14:10:19.283354 19313 net.cpp:454] relu6 <- fc6
I0224 14:10:19.283434 19313 net.cpp:397] relu6 -> fc6 (in-place)
I0224 14:10:19.283871 19313 net.cpp:150] Setting up relu6
I0224 14:10:19.283924 19313 net.cpp:157] Top shape: 256 4096 (1048576)
I0224 14:10:19.283967 19313 net.cpp:165] Memory required for data: 1739419648
I0224 14:10:19.284006 19313 layer_factory.hpp:77] Creating layer drop6
I0224 14:10:19.284055 19313 net.cpp:106] Creating Layer drop6
I0224 14:10:19.284098 19313 net.cpp:454] drop6 <- fc6
I0224 14:10:19.284145 19313 net.cpp:397] drop6 -> fc6 (in-place)
I0224 14:10:19.284212 19313 net.cpp:150] Setting up drop6
I0224 14:10:19.284256 19313 net.cpp:157] Top shape: 256 4096 (1048576)
I0224 14:10:19.284297 19313 net.cpp:165] Memory required for data: 1743613952
I0224 14:10:19.284343 19313 layer_factory.hpp:77] Creating layer fc7
I0224 14:10:19.284389 19313 net.cpp:106] Creating Layer fc7
I0224 14:10:19.284430 19313 net.cpp:454] fc7 <- fc6
I0224 14:10:19.284474 19313 net.cpp:411] fc7 -> fc7
I0224 14:10:19.724871 19313 net.cpp:150] Setting up fc7
I0224 14:10:19.725078 19313 net.cpp:157] Top shape: 256 4096 (1048576)
I0224 14:10:19.725188 19313 net.cpp:165] Memory required for data: 1747808256
I0224 14:10:19.725260 19313 layer_factory.hpp:77] Creating layer relu7
I0224 14:10:19.725435 19313 net.cpp:106] Creating Layer relu7
I0224 14:10:19.725540 19313 net.cpp:454] relu7 <- fc7
I0224 14:10:19.725620 19313 net.cpp:397] relu7 -> fc7 (in-place)
I0224 14:10:19.725893 19313 net.cpp:150] Setting up relu7
I0224 14:10:19.725996 19313 net.cpp:157] Top shape: 256 4096 (1048576)
I0224 14:10:19.726101 19313 net.cpp:165] Memory required for data: 1752002560
I0224 14:10:19.726338 19313 layer_factory.hpp:77] Creating layer drop7
I0224 14:10:19.726485 19313 net.cpp:106] Creating Layer drop7
I0224 14:10:19.726564 19313 net.cpp:454] drop7 <- fc7
I0224 14:10:19.726639 19313 net.cpp:397] drop7 -> fc7 (in-place)
I0224 14:10:19.726796 19313 net.cpp:150] Setting up drop7
I0224 14:10:19.726944 19313 net.cpp:157] Top shape: 256 4096 (1048576)
I0224 14:10:19.726985 19313 net.cpp:165] Memory required for data: 1756196864
I0224 14:10:19.727044 19313 layer_factory.hpp:77] Creating layer fc8
I0224 14:10:19.727090 19313 net.cpp:106] Creating Layer fc8
I0224 14:10:19.727134 19313 net.cpp:454] fc8 <- fc7
I0224 14:10:19.727218 19313 net.cpp:411] fc8 -> fc8
I0224 14:10:19.730396 19313 net.cpp:150] Setting up fc8
I0224 14:10:19.730445 19313 net.cpp:157] Top shape: 256 25 (6400)
I0224 14:10:19.730492 19313 net.cpp:165] Memory required for data: 1756222464
I0224 14:10:19.730540 19313 layer_factory.hpp:77] Creating layer loss
I0224 14:10:19.730590 19313 net.cpp:106] Creating Layer loss
I0224 14:10:19.730644 19313 net.cpp:454] loss <- fc8
I0224 14:10:19.730687 19313 net.cpp:454] loss <- label
I0224 14:10:19.730741 19313 net.cpp:411] loss -> loss
I0224 14:10:19.730793 19313 layer_factory.hpp:77] Creating layer loss
…
I0224 14:10:19.734763 19313 net.cpp:322] The NetState phase (1) differed from the phase (0) specified by a rule in layer data
I0224 14:10:19.734977 19313 net.cpp:49] Initializing net from parameters: 
name: "CaffeNet"
state {
  phase: TEST
}
layer {
  name: "data"
  type: "Data"
  top: "data"
  top: "label"
  include {
    phase: TEST
  }
  transform_param {
    mirror: false
    crop_size: 227
    mean_file: "data/ilsvrc12/half_imagenet_mean.binaryproto"
  }
  data_param {
    source: "examples/imagenet/half_ilsvrc12_val_lmdb"
    batch_size: 50
    backend: LMDB
  }
}
layer {
  name: "conv1"
  type: "Convolution"
  bottom: "data"
  top: "conv1"
  param {
    lr_mult: 1
    decay_mult: 1
  }
  param {
    lr_mult: 2
    decay_mult: 0
  }
  convolution_param {
    num_output: 96
    kernel_size: 11
    stride: 4
    weight_filler {
      type: "gaussian"
      std: 0.01
    }
    bias_filler {
      type: "constant"
      value: 0
    }
  }
}
layer {
  name: "relu1"
  type: "ReLU"
  bottom: "conv1"
  top: "conv1"
}
layer {
  name: "pool1"
  type: "Pooling"
  bottom: "conv1"
  top: "pool1"
  pooling_param {
    pool: MAX
    kernel_size: 3
    stride: 2
  }
}
layer {
  name: "norm1"
  type: "LRN"
  bottom: "pool1"
  top: "norm1"
  lrn_param {
    local_size: 5
    alpha: 0.0001
    beta: 0.75
  }
}
layer {
  name: "conv2"
  type: "Convolution"
  bottom: "norm1"
  top: "conv2"
  param {
    lr_mult: 1
    decay_mult: 1
  }
  param {
    lr_mult: 2
    decay_mult: 0
  }
  convolution_param {
    num_output: 256
    pad: 2
    kernel_size: 5
    group: 2
    weight_filler {
      type: "gaussian"
      std: 0.01
    }
    bias_filler {
      type: "constant"
      value: 1
    }
  }
}
layer {
  name: "relu2"
  type: "ReLU"
  bottom: "conv2"
  top: "conv2"
}
layer {
  name: "pool2"
  type: "Pooling"
  bottom: "conv2"
  top: "pool2"
  pooling_param {
    pool: MAX
    kernel_size: 3
    stride: 2
  }
}
layer {
  name: "norm2"
  type: "LRN"
  bottom: "pool2"
  top: "norm2"
  lrn_param {
    local_size: 5
    alpha: 0.0001
    beta: 0.75
  }
}
layer {
  name: "conv3"
  type: "Convolution"
  bottom: "norm2"
  top: "conv3"
  param {
    lr_mult: 1
    decay_mult: 1
  }
  param {
    lr_mult: 2
    decay_mult: 0
  }
  convolution_param {
    num_output: 384
    pad: 1
    kernel_size: 3
    weight_filler {
      type: "gaussian"
      std: 0.01
    }
    bias_filler {
      type: "constant"
      value: 0
    }
  }
}
layer {
  name: "relu3"
  type: "ReLU"
  bottom: "conv3"
  top: "conv3"
}
layer {
  name: "conv4"
  type: "Convolution"
  bottom: "conv3"
  top: "conv4"
  param {
    lr_mult: 1
    decay_mult: 1
  }
  param {
    lr_mult: 2
    decay_mult: 0
  }
  convolution_param {
    num_output: 384
    pad: 1
    kernel_size: 3
    group: 2
    weight_filler {
      type: "gaussian"
      std: 0.01
    }
    bias_filler {
      type: "constant"
      value: 1
    }
  }
}
layer {
  name: "relu4"
  type: "ReLU"
  bottom: "conv4"
  top: "conv4"
}
layer {
  name: "conv5"
  type: "Convolution"
  bottom: "conv4"
  top: "conv5"
  param {
    lr_mult: 1
    decay_mult: 1
  }
  param {
    lr_mult: 2
    decay_mult: 0
  }
  convolution_param {
    num_output: 256
    pad: 1
    kernel_size: 3
    group: 2
    weight_filler {
      type: "gaussian"
      std: 0.01
    }
    bias_filler {
      type: "constant"
      value: 1
    }
  }
}
layer {
  name: "relu5"
  type: "ReLU"
  bottom: "conv5"
  top: "conv5"
}
layer {
  name: "pool5"
  type: "Pooling"
  bottom: "conv5"
  top: "pool5"
  pooling_param {
    pool: MAX
    kernel_size: 3
    stride: 2
  }
}
layer {
  name: "fc6"
  type: "InnerProduct"
  bottom: "pool5"
  top: "fc6"
  param {
    lr_mult: 1
    decay_mult: 1
  }
  param {
    lr_mult: 2
    decay_mult: 0
  }
  inner_product_param {
    num_output: 4096
    weight_filler {
      type: "gaussian"
      std: 0.005
    }
    bias_filler {
      type: "constant"
      value: 1
    }
  }
}
layer {
  name: "relu6"
  type: "ReLU"
  bottom: "fc6"
  top: "fc6"
}
layer {
  name: "drop6"
  type: "Dropout"
  bottom: "fc6"
  top: "fc6"
  dropout_param {
    dropout_ratio: 0.5
  }
}
layer {
  name: "fc7"
  type: "InnerProduct"
  bottom: "fc6"
  top: "fc7"
  param {
    lr_mult: 1
    decay_mult: 1
  }
  param {
    lr_mult: 2
    decay_mult: 0
  }
  inner_product_param {
    num_output: 4096
    weight_filler {
      type: "gaussian"
      std: 0.005
    }
    bias_filler {
      type: "constant"
      value: 1
    }
  }
}
layer {
  name: "relu7"
  type: "ReLU"
  bottom: "fc7"
  top: "fc7"
}
layer {
  name: "drop7"
  type: "Dropout"
  bottom: "fc7"
  top: "fc7"
  dropout_param {
    dropout_ratio: 0.5
  }
}
layer {
  name: "fc8"
  type: "InnerProduct"
  bottom: "fc7"
  top: "fc8"
  param {
    lr_mult: 1
    decay_mult: 1
  }
  param {
    lr_mult: 2
    decay_mult: 0
  }
  inner_product_param {
    num_output: 25
    weight_filler {
      type: "gaussian"
      std: 0.01
    }
    bias_filler {
      type: "constant"
      value: 0
    }
  }
}
layer {
  name: "accuracy"
  type: "Accuracy"
  bottom: "fc8"
  bottom: "label"
  top: "accuracy"
  include {
    phase: TEST
  }
}
layer {
  name: "loss"
  type: "SoftmaxWithLoss"
  bottom: "fc8"
  bottom: "label"
  top: "loss"
}
I0224 14:10:19.735133 19313 layer_factory.hpp:77] Creating layer data
I0224 14:10:19.735242 19313 net.cpp:106] Creating Layer data
I0224 14:10:19.735285 19313 net.cpp:411] data -> data
I0224 14:10:19.735332 19313 net.cpp:411] data -> label
I0224 14:10:19.735402 19313 data_transformer.cpp:25] Loading mean file from: data/ilsvrc12/half_imagenet_mean.binaryproto
I0224 14:10:19.738180 19327 db_lmdb.cpp:38] Opened lmdb examples/imagenet/half_ilsvrc12_val_lmdb
I0224 14:10:19.738497 19313 data_layer.cpp:41] output data size: 50,3,227,227
I0224 14:10:19.776870 19313 net.cpp:150] Setting up data
I0224 14:10:19.777101 19313 net.cpp:157] Top shape: 50 3 227 227 (7729350)
I0224 14:10:19.777200 19313 net.cpp:157] Top shape: 50 (50)
I0224 14:10:19.777283 19313 net.cpp:165] Memory required for data: 30917600
I0224 14:10:19.777344 19313 layer_factory.hpp:77] Creating layer label_data_1_split
I0224 14:10:19.777434 19313 net.cpp:106] Creating Layer label_data_1_split
I0224 14:10:19.777492 19313 net.cpp:454] label_data_1_split <- label
I0224 14:10:19.777539 19313 net.cpp:411] label_data_1_split -> label_data_1_split_0
I0224 14:10:19.777624 19313 net.cpp:411] label_data_1_split -> label_data_1_split_1
I0224 14:10:19.777714 19313 net.cpp:150] Setting up label_data_1_split
I0224 14:10:19.777765 19313 net.cpp:157] Top shape: 50 (50)
I0224 14:10:19.777818 19313 net.cpp:157] Top shape: 50 (50)
I0224 14:10:19.777865 19313 net.cpp:165] Memory required for data: 30918000
I0224 14:10:19.777912 19313 layer_factory.hpp:77] Creating layer conv1
I0224 14:10:19.777969 19313 net.cpp:106] Creating Layer conv1
I0224 14:10:19.778017 19313 net.cpp:454] conv1 <- data
I0224 14:10:19.778067 19313 net.cpp:411] conv1 -> conv1
I0224 14:10:19.782201 19313 net.cpp:150] Setting up conv1
I0224 14:10:19.782282 19313 net.cpp:157] Top shape: 50 96 55 55 (14520000)
I0224 14:10:19.782325 19313 net.cpp:165] Memory required for data: 88998000
I0224 14:10:19.782379 19313 layer_factory.hpp:77] Creating layer relu1
I0224 14:10:19.782428 19313 net.cpp:106] Creating Layer relu1
I0224 14:10:19.782469 19313 net.cpp:454] relu1 <- conv1
I0224 14:10:19.782506 19313 net.cpp:397] relu1 -> conv1 (in-place)
I0224 14:10:19.782675 19313 net.cpp:150] Setting up relu1
I0224 14:10:19.782721 19313 net.cpp:157] Top shape: 50 96 55 55 (14520000)
I0224 14:10:19.782757 19313 net.cpp:165] Memory required for data: 147078000
I0224 14:10:19.782795 19313 layer_factory.hpp:77] Creating layer pool1
I0224 14:10:19.782835 19313 net.cpp:106] Creating Layer pool1
I0224 14:10:19.782874 19313 net.cpp:454] pool1 <- conv1
I0224 14:10:19.782913 19313 net.cpp:411] pool1 -> pool1
I0224 14:10:19.782987 19313 net.cpp:150] Setting up pool1
I0224 14:10:19.783025 19313 net.cpp:157] Top shape: 50 96 27 27 (3499200)
I0224 14:10:19.783061 19313 net.cpp:165] Memory required for data: 161074800
I0224 14:10:19.783098 19313 layer_factory.hpp:77] Creating layer norm1
I0224 14:10:19.783138 19313 net.cpp:106] Creating Layer norm1
I0224 14:10:19.783176 19313 net.cpp:454] norm1 <- pool1
I0224 14:10:19.783212 19313 net.cpp:411] norm1 -> norm1
I0224 14:10:19.783536 19313 net.cpp:150] Setting up norm1
I0224 14:10:19.783582 19313 net.cpp:157] Top shape: 50 96 27 27 (3499200)
I0224 14:10:19.783619 19313 net.cpp:165] Memory required for data: 175071600
I0224 14:10:19.783654 19313 layer_factory.hpp:77] Creating layer conv2
I0224 14:10:19.783697 19313 net.cpp:106] Creating Layer conv2
I0224 14:10:19.783735 19313 net.cpp:454] conv2 <- norm1
I0224 14:10:19.783774 19313 net.cpp:411] conv2 -> conv2
I0224 14:10:19.793542 19313 net.cpp:150] Setting up conv2
I0224 14:10:19.793637 19313 net.cpp:157] Top shape: 50 256 27 27 (9331200)
I0224 14:10:19.793687 19313 net.cpp:165] Memory required for data: 212396400
I0224 14:10:19.793741 19313 layer_factory.hpp:77] Creating layer relu2
I0224 14:10:19.793793 19313 net.cpp:106] Creating Layer relu2
I0224 14:10:19.793843 19313 net.cpp:454] relu2 <- conv2
I0224 14:10:19.793887 19313 net.cpp:397] relu2 -> conv2 (in-place)
I0224 14:10:19.794181 19313 net.cpp:150] Setting up relu2
I0224 14:10:19.794266 19313 net.cpp:157] Top shape: 50 256 27 27 (9331200)
I0224 14:10:19.794309 19313 net.cpp:165] Memory required for data: 249721200
I0224 14:10:19.794354 19313 layer_factory.hpp:77] Creating layer pool2
I0224 14:10:19.794402 19313 net.cpp:106] Creating Layer pool2
I0224 14:10:19.794443 19313 net.cpp:454] pool2 <- conv2
I0224 14:10:19.794489 19313 net.cpp:411] pool2 -> pool2
I0224 14:10:19.794569 19313 net.cpp:150] Setting up pool2
I0224 14:10:19.794615 19313 net.cpp:157] Top shape: 50 256 13 13 (2163200)
I0224 14:10:19.794657 19313 net.cpp:165] Memory required for data: 258374000
I0224 14:10:19.794697 19313 layer_factory.hpp:77] Creating layer norm2
I0224 14:10:19.794741 19313 net.cpp:106] Creating Layer norm2
I0224 14:10:19.794785 19313 net.cpp:454] norm2 <- pool2
I0224 14:10:19.794832 19313 net.cpp:411] norm2 -> norm2
I0224 14:10:19.795030 19313 net.cpp:150] Setting up norm2
I0224 14:10:19.795078 19313 net.cpp:157] Top shape: 50 256 13 13 (2163200)
I0224 14:10:19.795120 19313 net.cpp:165] Memory required for data: 267026800
I0224 14:10:19.795161 19313 layer_factory.hpp:77] Creating layer conv3
I0224 14:10:19.795212 19313 net.cpp:106] Creating Layer conv3
I0224 14:10:19.795253 19313 net.cpp:454] conv3 <- norm2
I0224 14:10:19.795299 19313 net.cpp:411] conv3 -> conv3
I0224 14:10:19.820381 19313 net.cpp:150] Setting up conv3
I0224 14:10:19.820480 19313 net.cpp:157] Top shape: 50 384 13 13 (3244800)
I0224 14:10:19.820528 19313 net.cpp:165] Memory required for data: 280006000
I0224 14:10:19.820577 19313 layer_factory.hpp:77] Creating layer relu3
I0224 14:10:19.820626 19313 net.cpp:106] Creating Layer relu3
I0224 14:10:19.820665 19313 net.cpp:454] relu3 <- conv3
I0224 14:10:19.820710 19313 net.cpp:397] relu3 -> conv3 (in-place)
I0224 14:10:19.820987 19313 net.cpp:150] Setting up relu3
I0224 14:10:19.821028 19313 net.cpp:157] Top shape: 50 384 13 13 (3244800)
I0224 14:10:19.821064 19313 net.cpp:165] Memory required for data: 292985200
I0224 14:10:19.821105 19313 layer_factory.hpp:77] Creating layer conv4
I0224 14:10:19.821147 19313 net.cpp:106] Creating Layer conv4
I0224 14:10:19.821182 19313 net.cpp:454] conv4 <- conv3
I0224 14:10:19.821220 19313 net.cpp:411] conv4 -> conv4
I0224 14:10:19.840807 19313 net.cpp:150] Setting up conv4
I0224 14:10:19.840879 19313 net.cpp:157] Top shape: 50 384 13 13 (3244800)
I0224 14:10:19.840924 19313 net.cpp:165] Memory required for data: 305964400
I0224 14:10:19.840973 19313 layer_factory.hpp:77] Creating layer relu4
I0224 14:10:19.841022 19313 net.cpp:106] Creating Layer relu4
I0224 14:10:19.841063 19313 net.cpp:454] relu4 <- conv4
I0224 14:10:19.841106 19313 net.cpp:397] relu4 -> conv4 (in-place)
I0224 14:10:19.841406 19313 net.cpp:150] Setting up relu4
I0224 14:10:19.841450 19313 net.cpp:157] Top shape: 50 384 13 13 (3244800)
I0224 14:10:19.841488 19313 net.cpp:165] Memory required for data: 318943600
I0224 14:10:19.841526 19313 layer_factory.hpp:77] Creating layer conv5
I0224 14:10:19.841573 19313 net.cpp:106] Creating Layer conv5
I0224 14:10:19.841614 19313 net.cpp:454] conv5 <- conv4
I0224 14:10:19.841655 19313 net.cpp:411] conv5 -> conv5
I0224 14:10:19.855108 19313 net.cpp:150] Setting up conv5
I0224 14:10:19.855201 19313 net.cpp:157] Top shape: 50 256 13 13 (2163200)
I0224 14:10:19.855276 19313 net.cpp:165] Memory required for data: 327596400
I0224 14:10:19.855334 19313 layer_factory.hpp:77] Creating layer relu5
I0224 14:10:19.855408 19313 net.cpp:106] Creating Layer relu5
I0224 14:10:19.855453 19313 net.cpp:454] relu5 <- conv5
I0224 14:10:19.855494 19313 net.cpp:397] relu5 -> conv5 (in-place)
I0224 14:10:19.855667 19313 net.cpp:150] Setting up relu5
I0224 14:10:19.855715 19313 net.cpp:157] Top shape: 50 256 13 13 (2163200)
I0224 14:10:19.855752 19313 net.cpp:165] Memory required for data: 336249200
I0224 14:10:19.855792 19313 layer_factory.hpp:77] Creating layer pool5
I0224 14:10:19.855836 19313 net.cpp:106] Creating Layer pool5
I0224 14:10:19.855875 19313 net.cpp:454] pool5 <- conv5
I0224 14:10:19.855921 19313 net.cpp:411] pool5 -> pool5
I0224 14:10:19.856003 19313 net.cpp:150] Setting up pool5
I0224 14:10:19.856083 19313 net.cpp:157] Top shape: 50 256 6 6 (460800)
I0224 14:10:19.856123 19313 net.cpp:165] Memory required for data: 338092400
I0224 14:10:19.856164 19313 layer_factory.hpp:77] Creating layer fc6
I0224 14:10:19.856209 19313 net.cpp:106] Creating Layer fc6
I0224 14:10:19.856247 19313 net.cpp:454] fc6 <- pool5
I0224 14:10:19.856293 19313 net.cpp:411] fc6 -> fc6
I0224 14:10:20.855906 19313 net.cpp:150] Setting up fc6
I0224 14:10:20.856024 19313 net.cpp:157] Top shape: 50 4096 (204800)
I0224 14:10:20.856186 19313 net.cpp:165] Memory required for data: 338911600
I0224 14:10:20.856278 19313 layer_factory.hpp:77] Creating layer relu6
I0224 14:10:20.856452 19313 net.cpp:106] Creating Layer relu6
I0224 14:10:20.856534 19313 net.cpp:454] relu6 <- fc6
I0224 14:10:20.856593 19313 net.cpp:397] relu6 -> fc6 (in-place)
I0224 14:10:20.857051 19313 net.cpp:150] Setting up relu6
I0224 14:10:20.857156 19313 net.cpp:157] Top shape: 50 4096 (204800)
I0224 14:10:20.857334 19313 net.cpp:165] Memory required for data: 339730800
I0224 14:10:20.857383 19313 layer_factory.hpp:77] Creating layer drop6
I0224 14:10:20.857556 19313 net.cpp:106] Creating Layer drop6
I0224 14:10:20.857625 19313 net.cpp:454] drop6 <- fc6
I0224 14:10:20.857789 19313 net.cpp:397] drop6 -> fc6 (in-place)
I0224 14:10:20.857883 19313 net.cpp:150] Setting up drop6
I0224 14:10:20.857928 19313 net.cpp:157] Top shape: 50 4096 (204800)
I0224 14:10:20.858002 19313 net.cpp:165] Memory required for data: 340550000
I0224 14:10:20.858114 19313 layer_factory.hpp:77] Creating layer fc7
I0224 14:10:20.858188 19313 net.cpp:106] Creating Layer fc7
I0224 14:10:20.858239 19313 net.cpp:454] fc7 <- fc6
I0224 14:10:20.858314 19313 net.cpp:411] fc7 -> fc7
I0224 14:10:21.303913 19313 net.cpp:150] Setting up fc7
I0224 14:10:21.304023 19313 net.cpp:157] Top shape: 50 4096 (204800)
I0224 14:10:21.304114 19313 net.cpp:165] Memory required for data: 341369200
I0224 14:10:21.304186 19313 layer_factory.hpp:77] Creating layer relu7
I0224 14:10:21.304314 19313 net.cpp:106] Creating Layer relu7
I0224 14:10:21.304451 19313 net.cpp:454] relu7 <- fc7
I0224 14:10:21.304527 19313 net.cpp:397] relu7 -> fc7 (in-place)
I0224 14:10:21.304792 19313 net.cpp:150] Setting up relu7
I0224 14:10:21.304875 19313 net.cpp:157] Top shape: 50 4096 (204800)
I0224 14:10:21.304999 19313 net.cpp:165] Memory required for data: 342188400
I0224 14:10:21.305070 19313 layer_factory.hpp:77] Creating layer drop7
I0224 14:10:21.305166 19313 net.cpp:106] Creating Layer drop7
I0224 14:10:21.305238 19313 net.cpp:454] drop7 <- fc7
I0224 14:10:21.305284 19313 net.cpp:397] drop7 -> fc7 (in-place)
I0224 14:10:21.305378 19313 net.cpp:150] Setting up drop7
I0224 14:10:21.305449 19313 net.cpp:157] Top shape: 50 4096 (204800)
I0224 14:10:21.305490 19313 net.cpp:165] Memory required for data: 343007600
I0224 14:10:21.305536 19313 layer_factory.hpp:77] Creating layer fc8
I0224 14:10:21.305608 19313 net.cpp:106] Creating Layer fc8
I0224 14:10:21.305649 19313 net.cpp:454] fc8 <- fc7
I0224 14:10:21.305719 19313 net.cpp:411] fc8 -> fc8
I0224 14:10:21.308495 19313 net.cpp:150] Setting up fc8
I0224 14:10:21.308539 19313 net.cpp:157] Top shape: 50 25 (1250)
I0224 14:10:21.308605 19313 net.cpp:165] Memory required for data: 343012600
I0224 14:10:21.308675 19313 layer_factory.hpp:77] Creating layer fc8_fc8_0_split
I0224 14:10:21.308717 19313 net.cpp:106] Creating Layer fc8_fc8_0_split
I0224 14:10:21.308764 19313 net.cpp:454] fc8_fc8_0_split <- fc8
I0224 14:10:21.308833 19313 net.cpp:411] fc8_fc8_0_split -> fc8_fc8_0_split_0
I0224 14:10:21.308877 19313 net.cpp:411] fc8_fc8_0_split -> fc8_fc8_0_split_1
I0224 14:10:21.308950 19313 net.cpp:150] Setting up fc8_fc8_0_split
I0224 14:10:21.309000 19313 net.cpp:157] Top shape: 50 25 (1250)
I0224 14:10:21.309041 19313 net.cpp:157] Top shape: 50 25 (1250)
I0224 14:10:21.309082 19313 net.cpp:165] Memory required for data: 343022600
I0224 14:10:21.309123 19313 layer_factory.hpp:77] Creating layer accuracy
I0224 14:10:21.309177 19313 net.cpp:106] Creating Layer accuracy
I0224 14:10:21.309252 19313 net.cpp:454] accuracy <- fc8_fc8_0_split_0
I0224 14:10:21.309295 19313 net.cpp:454] accuracy <- label_data_1_split_0
I0224 14:10:21.309340 19313 net.cpp:411] accuracy -> accuracy
…
