…
I0129 10:52:31.114428 18194 net.cpp:322] The NetState phase (0) differed from the phase (1) specified by a rule in layer mnist
I0129 10:52:31.114542 18194 net.cpp:322] The NetState phase (0) differed from the phase (1) specified by a rule in layer accuracy
I0129 10:52:31.114760 18194 net.cpp:49] Initializing net from parameters: 
name: "LeNet"
state {
  phase: TRAIN
}
layer {
  name: "mnist"
  type: "Data"
  top: "data"
  top: "label"
  include {
    phase: TRAIN
  }
  transform_param {
    scale: 0.00390625
  }
  data_param {
    source: "examples/mnist/mnist_train_lmdb"
    batch_size: 64
    backend: LMDB
  }
}
layer {
  name: "conv1"
  type: "Convolution"
  bottom: "data"
  top: "conv1"
  param {
    lr_mult: 1
  }
  param {
    lr_mult: 2
  }
  convolution_param {
    num_output: 20
    kernel_size: 5
    stride: 1
    weight_filler {
      type: "xavier"
    }
    bias_filler {
      type: "constant"
    }
  }
}
layer {
  name: "pool1"
  type: "Pooling"
  bottom: "conv1"
  top: "pool1"
  pooling_param {
    pool: MAX
    kernel_size: 2
    stride: 2
  }
}
layer {
  name: "conv2"
  type: "Convolution"
  bottom: "pool1"
  top: "conv2"
  param {
    lr_mult: 1
  }
  param {
    lr_mult: 2
  }
  convolution_param {
    num_output: 50
    kernel_size: 5
    stride: 1
    weight_filler {
      type: "xavier"
    }
    bias_filler {
      type: "constant"
    }
  }
}
layer {
  name: "pool2"
  type: "Pooling"
  bottom: "conv2"
  top: "pool2"
  pooling_param {
    pool: MAX
    kernel_size: 2
    stride: 2
  }
}
layer {
  name: "ip1"
  type: "InnerProduct"
  bottom: "pool2"
  top: "ip1"
  param {
    lr_mult: 1
  }
  param {
    lr_mult: 2
  }
  inner_product_param {
    num_output: 500
    weight_filler {
      type: "xavier"
    }
    bias_filler {
      type: "constant"
    }
  }
}
layer {
  name: "relu1"
  type: "ReLU"
  bottom: "ip1"
  top: "ip1"
}
layer {
  name: "ip2"
  type: "InnerProduct"
  bottom: "ip1"
  top: "ip2"
  param {
    lr_mult: 1
  }
  param {
    lr_mult: 2
  }
  inner_product_param {
    num_output: 10
    weight_filler {
      type: "xavier"
    }
    bias_filler {
      type: "constant"
    }
  }
}
layer {
  name: "loss"
  type: "SoftmaxWithLoss"
  bottom: "ip2"
  bottom: "label"
  top: "loss"
}
I0129 10:52:31.114876 18194 layer_factory.hpp:77] Creating layer mnist
I0129 10:52:31.115320 18194 net.cpp:106] Creating Layer mnist
I0129 10:52:31.115376 18194 net.cpp:411] mnist -> data
I0129 10:52:31.115442 18194 net.cpp:411] mnist -> label
I0129 10:52:31.117694 18198 db_lmdb.cpp:38] Opened lmdb examples/mnist/mnist_train_lmdb
I0129 10:52:31.125365 18194 data_layer.cpp:41] output data size: 64,1,28,28
I0129 10:52:31.126287 18194 net.cpp:150] Setting up mnist
I0129 10:52:31.126369 18194 net.cpp:157] Top shape: 64 1 28 28 (50176)
I0129 10:52:31.126413 18194 net.cpp:157] Top shape: 64 (64)
I0129 10:52:31.126456 18194 net.cpp:165] Memory required for data: 200960
I0129 10:52:31.126508 18194 layer_factory.hpp:77] Creating layer conv1
I0129 10:52:31.126572 18194 net.cpp:106] Creating Layer conv1
I0129 10:52:31.126621 18194 net.cpp:454] conv1 <- data
I0129 10:52:31.126672 18194 net.cpp:411] conv1 -> conv1
I0129 10:52:31.127301 18194 net.cpp:150] Setting up conv1
I0129 10:52:31.127357 18194 net.cpp:157] Top shape: 64 20 24 24 (737280)
I0129 10:52:31.127399 18194 net.cpp:165] Memory required for data: 3150080
I0129 10:52:31.127457 18194 layer_factory.hpp:77] Creating layer pool1
I0129 10:52:31.127508 18194 net.cpp:106] Creating Layer pool1
I0129 10:52:31.127557 18194 net.cpp:454] pool1 <- conv1
I0129 10:52:31.127629 18194 net.cpp:411] pool1 -> pool1
I0129 10:52:31.127770 18194 net.cpp:150] Setting up pool1
I0129 10:52:31.127835 18194 net.cpp:157] Top shape: 64 20 12 12 (184320)
I0129 10:52:31.127890 18194 net.cpp:165] Memory required for data: 3887360
I0129 10:52:31.127941 18194 layer_factory.hpp:77] Creating layer conv2
I0129 10:52:31.128000 18194 net.cpp:106] Creating Layer conv2
I0129 10:52:31.128048 18194 net.cpp:454] conv2 <- pool1
I0129 10:52:31.128113 18194 net.cpp:411] conv2 -> conv2
I0129 10:52:31.128589 18194 net.cpp:150] Setting up conv2
I0129 10:52:31.128641 18194 net.cpp:157] Top shape: 64 50 8 8 (204800)
I0129 10:52:31.128702 18194 net.cpp:165] Memory required for data: 4706560
I0129 10:52:31.128767 18194 layer_factory.hpp:77] Creating layer pool2
I0129 10:52:31.128829 18194 net.cpp:106] Creating Layer pool2
I0129 10:52:31.128883 18194 net.cpp:454] pool2 <- conv2
I0129 10:52:31.128944 18194 net.cpp:411] pool2 -> pool2
I0129 10:52:31.129047 18194 net.cpp:150] Setting up pool2
I0129 10:52:31.129112 18194 net.cpp:157] Top shape: 64 50 4 4 (51200)
I0129 10:52:31.129164 18194 net.cpp:165] Memory required for data: 4911360
I0129 10:52:31.129210 18194 layer_factory.hpp:77] Creating layer ip1
I0129 10:52:31.129252 18194 net.cpp:106] Creating Layer ip1
I0129 10:52:31.129292 18194 net.cpp:454] ip1 <- pool2
I0129 10:52:31.129335 18194 net.cpp:411] ip1 -> ip1
I0129 10:52:31.132205 18194 net.cpp:150] Setting up ip1
I0129 10:52:31.132256 18194 net.cpp:157] Top shape: 64 500 (32000)
I0129 10:52:31.132293 18194 net.cpp:165] Memory required for data: 5039360
I0129 10:52:31.132340 18194 layer_factory.hpp:77] Creating layer relu1
I0129 10:52:31.132385 18194 net.cpp:106] Creating Layer relu1
I0129 10:52:31.132422 18194 net.cpp:454] relu1 <- ip1
I0129 10:52:31.132462 18194 net.cpp:397] relu1 -> ip1 (in-place)
I0129 10:52:31.132505 18194 net.cpp:150] Setting up relu1
I0129 10:52:31.132544 18194 net.cpp:157] Top shape: 64 500 (32000)
I0129 10:52:31.132581 18194 net.cpp:165] Memory required for data: 5167360
I0129 10:52:31.132619 18194 layer_factory.hpp:77] Creating layer ip2
I0129 10:52:31.132659 18194 net.cpp:106] Creating Layer ip2
I0129 10:52:31.132695 18194 net.cpp:454] ip2 <- ip1
I0129 10:52:31.132737 18194 net.cpp:411] ip2 -> ip2
I0129 10:52:31.133224 18194 net.cpp:150] Setting up ip2
I0129 10:52:31.133270 18194 net.cpp:157] Top shape: 64 10 (640)
I0129 10:52:31.133306 18194 net.cpp:165] Memory required for data: 5169920
I0129 10:52:31.133347 18194 layer_factory.hpp:77] Creating layer loss
I0129 10:52:31.133394 18194 net.cpp:106] Creating Layer loss
I0129 10:52:31.133431 18194 net.cpp:454] loss <- ip2
I0129 10:52:31.133471 18194 net.cpp:454] loss <- label
I0129 10:52:31.133510 18194 net.cpp:411] loss -> loss
I0129 10:52:31.133559 18194 layer_factory.hpp:77] Creating layer loss
…
I0129 10:52:31.135349 18194 solver.cpp:181] Creating test net (#0) specified by net file: examples/mnist/lenet_train_test.prototxt
I0129 10:52:31.135408 18194 net.cpp:322] The NetState phase (1) differed from the phase (0) specified by a rule in layer mnist
I0129 10:52:31.135556 18194 net.cpp:49] Initializing net from parameters: 
name: "LeNet"
state {
  phase: TEST
}
layer {
  name: "mnist"
  type: "Data"
  top: "data"
  top: "label"
  include {
    phase: TEST
  }
  transform_param {
    scale: 0.00390625
  }
  data_param {
    source: "examples/mnist/mnist_test_lmdb"
    batch_size: 100
    backend: LMDB
  }
}
layer {
  name: "conv1"
  type: "Convolution"
  bottom: "data"
  top: "conv1"
  param {
    lr_mult: 1
  }
  param {
    lr_mult: 2
  }
  convolution_param {
    num_output: 20
    kernel_size: 5
    stride: 1
    weight_filler {
      type: "xavier"
    }
    bias_filler {
      type: "constant"
    }
  }
}
layer {
  name: "pool1"
  type: "Pooling"
  bottom: "conv1"
  top: "pool1"
  pooling_param {
    pool: MAX
    kernel_size: 2
    stride: 2
  }
}
layer {
  name: "conv2"
  type: "Convolution"
  bottom: "pool1"
  top: "conv2"
  param {
    lr_mult: 1
  }
  param {
    lr_mult: 2
  }
  convolution_param {
    num_output: 50
    kernel_size: 5
    stride: 1
    weight_filler {
      type: "xavier"
    }
    bias_filler {
      type: "constant"
    }
  }
}
layer {
  name: "pool2"
  type: "Pooling"
  bottom: "conv2"
  top: "pool2"
  pooling_param {
    pool: MAX
    kernel_size: 2
    stride: 2
  }
}
layer {
  name: "ip1"
  type: "InnerProduct"
  bottom: "pool2"
  top: "ip1"
  param {
    lr_mult: 1
  }
  param {
    lr_mult: 2
  }
  inner_product_param {
    num_output: 500
    weight_filler {
      type: "xavier"
    }
    bias_filler {
      type: "constant"
    }
  }
}
layer {
  name: "relu1"
  type: "ReLU"
  bottom: "ip1"
  top: "ip1"
}
layer {
  name: "ip2"
  type: "InnerProduct"
  bottom: "ip1"
  top: "ip2"
  param {
    lr_mult: 1
  }
  param {
    lr_mult: 2
  }
  inner_product_param {
    num_output: 10
    weight_filler {
      type: "xavier"
    }
    bias_filler {
      type: "constant"
    }
  }
}
layer {
  name: "accuracy"
  type: "Accuracy"
  bottom: "ip2"
  bottom: "label"
  top: "accuracy"
  include {
    phase: TEST
  }
}
layer {
  name: "loss"
  type: "SoftmaxWithLoss"
  bottom: "ip2"
  bottom: "label"
  top: "loss"
}
I0129 10:52:31.135659 18194 layer_factory.hpp:77] Creating layer mnist
I0129 10:52:31.135798 18194 net.cpp:106] Creating Layer mnist
I0129 10:52:31.135845 18194 net.cpp:411] mnist -> data
I0129 10:52:31.135895 18194 net.cpp:411] mnist -> label
I0129 10:52:31.138345 18200 db_lmdb.cpp:38] Opened lmdb examples/mnist/mnist_test_lmdb
I0129 10:52:31.138468 18194 data_layer.cpp:41] output data size: 100,1,28,28
I0129 10:52:31.139576 18194 net.cpp:150] Setting up mnist
I0129 10:52:31.139631 18194 net.cpp:157] Top shape: 100 1 28 28 (78400)
I0129 10:52:31.139681 18194 net.cpp:157] Top shape: 100 (100)
I0129 10:52:31.139726 18194 net.cpp:165] Memory required for data: 314000
I0129 10:52:31.139771 18194 layer_factory.hpp:77] Creating layer label_mnist_1_split
I0129 10:52:31.139822 18194 net.cpp:106] Creating Layer label_mnist_1_split
I0129 10:52:31.139860 18194 net.cpp:454] label_mnist_1_split <- label
I0129 10:52:31.139907 18194 net.cpp:411] label_mnist_1_split -> label_mnist_1_split_0
I0129 10:52:31.139956 18194 net.cpp:411] label_mnist_1_split -> label_mnist_1_split_1
I0129 10:52:31.140032 18194 net.cpp:150] Setting up label_mnist_1_split
I0129 10:52:31.140074 18194 net.cpp:157] Top shape: 100 (100)
I0129 10:52:31.140116 18194 net.cpp:157] Top shape: 100 (100)
I0129 10:52:31.140156 18194 net.cpp:165] Memory required for data: 314800
I0129 10:52:31.140197 18194 layer_factory.hpp:77] Creating layer conv1
I0129 10:52:31.140246 18194 net.cpp:106] Creating Layer conv1
I0129 10:52:31.140285 18194 net.cpp:454] conv1 <- data
I0129 10:52:31.140326 18194 net.cpp:411] conv1 -> conv1
I0129 10:52:31.140651 18194 net.cpp:150] Setting up conv1
I0129 10:52:31.140712 18194 net.cpp:157] Top shape: 100 20 24 24 (1152000)
I0129 10:52:31.140769 18194 net.cpp:165] Memory required for data: 4922800
I0129 10:52:31.140822 18194 layer_factory.hpp:77] Creating layer pool1
I0129 10:52:31.140882 18194 net.cpp:106] Creating Layer pool1
I0129 10:52:31.140941 18194 net.cpp:454] pool1 <- conv1
I0129 10:52:31.141011 18194 net.cpp:411] pool1 -> pool1
I0129 10:52:31.141101 18194 net.cpp:150] Setting up pool1
I0129 10:52:31.141160 18194 net.cpp:157] Top shape: 100 20 12 12 (288000)
I0129 10:52:31.141211 18194 net.cpp:165] Memory required for data: 6074800
I0129 10:52:31.141258 18194 layer_factory.hpp:77] Creating layer conv2
I0129 10:52:31.141317 18194 net.cpp:106] Creating Layer conv2
I0129 10:52:31.141372 18194 net.cpp:454] conv2 <- pool1
I0129 10:52:31.141427 18194 net.cpp:411] conv2 -> conv2
I0129 10:52:31.141790 18194 net.cpp:150] Setting up conv2
I0129 10:52:31.141852 18194 net.cpp:157] Top shape: 100 50 8 8 (320000)
I0129 10:52:31.141911 18194 net.cpp:165] Memory required for data: 7354800
I0129 10:52:31.141971 18194 layer_factory.hpp:77] Creating layer pool2
I0129 10:52:31.142026 18194 net.cpp:106] Creating Layer pool2
I0129 10:52:31.142081 18194 net.cpp:454] pool2 <- conv2
I0129 10:52:31.142139 18194 net.cpp:411] pool2 -> pool2
I0129 10:52:31.142218 18194 net.cpp:150] Setting up pool2
I0129 10:52:31.142274 18194 net.cpp:157] Top shape: 100 50 4 4 (80000)
I0129 10:52:31.142354 18194 net.cpp:165] Memory required for data: 7674800
I0129 10:52:31.142405 18194 layer_factory.hpp:77] Creating layer ip1
I0129 10:52:31.142467 18194 net.cpp:106] Creating Layer ip1
I0129 10:52:31.142515 18194 net.cpp:454] ip1 <- pool2
I0129 10:52:31.142565 18194 net.cpp:411] ip1 -> ip1
I0129 10:52:31.145417 18194 net.cpp:150] Setting up ip1
I0129 10:52:31.145467 18194 net.cpp:157] Top shape: 100 500 (50000)
I0129 10:52:31.145508 18194 net.cpp:165] Memory required for data: 7874800
I0129 10:52:31.145552 18194 layer_factory.hpp:77] Creating layer relu1
I0129 10:52:31.145597 18194 net.cpp:106] Creating Layer relu1
I0129 10:52:31.145637 18194 net.cpp:454] relu1 <- ip1
I0129 10:52:31.145675 18194 net.cpp:397] relu1 -> ip1 (in-place)
I0129 10:52:31.145717 18194 net.cpp:150] Setting up relu1
I0129 10:52:31.145756 18194 net.cpp:157] Top shape: 100 500 (50000)
I0129 10:52:31.145793 18194 net.cpp:165] Memory required for data: 8074800
I0129 10:52:31.145830 18194 layer_factory.hpp:77] Creating layer ip2
I0129 10:52:31.145872 18194 net.cpp:106] Creating Layer ip2
I0129 10:52:31.145910 18194 net.cpp:454] ip2 <- ip1
I0129 10:52:31.145951 18194 net.cpp:411] ip2 -> ip2
I0129 10:52:31.146090 18194 net.cpp:150] Setting up ip2
I0129 10:52:31.146131 18194 net.cpp:157] Top shape: 100 10 (1000)
I0129 10:52:31.146168 18194 net.cpp:165] Memory required for data: 8078800
I0129 10:52:31.146209 18194 layer_factory.hpp:77] Creating layer ip2_ip2_0_split
I0129 10:52:31.146248 18194 net.cpp:106] Creating Layer ip2_ip2_0_split
I0129 10:52:31.146286 18194 net.cpp:454] ip2_ip2_0_split <- ip2
I0129 10:52:31.146335 18194 net.cpp:411] ip2_ip2_0_split -> ip2_ip2_0_split_0
I0129 10:52:31.146376 18194 net.cpp:411] ip2_ip2_0_split -> ip2_ip2_0_split_1
I0129 10:52:31.146440 18194 net.cpp:150] Setting up ip2_ip2_0_split
I0129 10:52:31.146479 18194 net.cpp:157] Top shape: 100 10 (1000)
I0129 10:52:31.146518 18194 net.cpp:157] Top shape: 100 10 (1000)
I0129 10:52:31.146555 18194 net.cpp:165] Memory required for data: 8086800
I0129 10:52:31.146591 18194 layer_factory.hpp:77] Creating layer accuracy
I0129 10:52:31.146637 18194 net.cpp:106] Creating Layer accuracy
I0129 10:52:31.146675 18194 net.cpp:454] accuracy <- ip2_ip2_0_split_0
I0129 10:52:31.146714 18194 net.cpp:454] accuracy <- label_mnist_1_split_0
I0129 10:52:31.146754 18194 net.cpp:411] accuracy -> accuracy
…
