…
I0225 00:09:59.973575   389 net.cpp:322] The NetState phase (0) differed from the phase (1) specified by a rule in layer accuracy
I0225 00:09:59.974056   389 net.cpp:49] Initializing net from parameters: 
name: "CaffeNet"
state {
  phase: TRAIN
}
layer {
  name: "data"
  type: "Data"
  top: "data"
  top: "label"
  include {
    phase: TRAIN
  }
  transform_param {
    mirror: true
    crop_size: 227
    mean_file: "data/ilsvrc12/imagenet_mean.binaryproto"
  }
  data_param {
    source: "examples/imagenet/ilsvrc12_train_lmdb"
    batch_size: 256
    backend: LMDB
  }
}
layer {
  name: "conv1"
  type: "Convolution"
  bottom: "data"
  top: "conv1"
  param {
    lr_mult: 1
    decay_mult: 1
  }
  param {
    lr_mult: 2
    decay_mult: 0
  }
  convolution_param {
    num_output: 96
    kernel_size: 11
    stride: 4
    weight_filler {
      type: "gaussian"
      std: 0.01
    }
    bias_filler {
      type: "constant"
      value: 0
    }
  }
}
layer {
  name: "relu1"
  type: "ReLU"
  bottom: "conv1"
  top: "conv1"
}
layer {
  name: "pool1"
  type: "Pooling"
  bottom: "conv1"
  top: "pool1"
  pooling_param {
    pool: MAX
    kernel_size: 3
    stride: 2
  }
}
layer {
  name: "norm1"
  type: "LRN"
  bottom: "pool1"
  top: "norm1"
  lrn_param {
    local_size: 5
    alpha: 0.0001
    beta: 0.75
  }
}
layer {
  name: "conv2"
  type: "Convolution"
  bottom: "norm1"
  top: "conv2"
  param {
    lr_mult: 1
    decay_mult: 1
  }
  param {
    lr_mult: 2
    decay_mult: 0
  }
  convolution_param {
    num_output: 256
    pad: 2
    kernel_size: 5
    group: 2
    weight_filler {
      type: "gaussian"
      std: 0.01
    }
    bias_filler {
      type: "constant"
      value: 1
    }
  }
}
layer {
  name: "relu2"
  type: "ReLU"
  bottom: "conv2"
  top: "conv2"
}
layer {
  name: "pool2"
  type: "Pooling"
  bottom: "conv2"
  top: "pool2"
  pooling_param {
    pool: MAX
    kernel_size: 3
    stride: 2
  }
}
layer {
  name: "norm2"
  type: "LRN"
  bottom: "pool2"
  top: "norm2"
  lrn_param {
    local_size: 5
    alpha: 0.0001
    beta: 0.75
  }
}
layer {
  name: "conv3"
  type: "Convolution"
  bottom: "norm2"
  top: "conv3"
  param {
    lr_mult: 1
    decay_mult: 1
  }
  param {
    lr_mult: 2
    decay_mult: 0
  }
  convolution_param {
    num_output: 384
    pad: 1
    kernel_size: 3
    weight_filler {
      type: "gaussian"
      std: 0.01
    }
    bias_filler {
      type: "constant"
      value: 0
    }
  }
}
layer {
  name: "relu3"
  type: "ReLU"
  bottom: "conv3"
  top: "conv3"
}
layer {
  name: "conv4"
  type: "Convolution"
  bottom: "conv3"
  top: "conv4"
  param {
    lr_mult: 1
    decay_mult: 1
  }
  param {
    lr_mult: 2
    decay_mult: 0
  }
  convolution_param {
    num_output: 384
    pad: 1
    kernel_size: 3
    group: 2
    weight_filler {
      type: "gaussian"
      std: 0.01
    }
    bias_filler {
      type: "constant"
      value: 1
    }
  }
}
layer {
  name: "relu4"
  type: "ReLU"
  bottom: "conv4"
  top: "conv4"
}
layer {
  name: "conv5"
  type: "Convolution"
  bottom: "conv4"
  top: "conv5"
  param {
    lr_mult: 1
    decay_mult: 1
  }
  param {
    lr_mult: 2
    decay_mult: 0
  }
  convolution_param {
    num_output: 256
    pad: 1
    kernel_size: 3
    group: 2
    weight_filler {
      type: "gaussian"
      std: 0.01
    }
    bias_filler {
      type: "constant"
      value: 1
    }
  }
}
layer {
  name: "relu5"
  type: "ReLU"
  bottom: "conv5"
  top: "conv5"
}
layer {
  name: "pool5"
  type: "Pooling"
  bottom: "conv5"
  top: "pool5"
  pooling_param {
    pool: MAX
    kernel_size: 3
    stride: 2
  }
}
layer {
  name: "fc6"
  type: "InnerProduct"
  bottom: "pool5"
  top: "fc6"
  param {
    lr_mult: 1
    decay_mult: 1
  }
  param {
    lr_mult: 2
    decay_mult: 0
  }
  inner_product_param {
    num_output: 4096
    weight_filler {
      type: "gaussian"
      std: 0.005
    }
    bias_filler {
      type: "constant"
      value: 1
    }
  }
}
layer {
  name: "relu6"
  type: "ReLU"
  bottom: "fc6"
  top: "fc6"
}
layer {
  name: "drop6"
  type: "Dropout"
  bottom: "fc6"
  top: "fc6"
  dropout_param {
    dropout_ratio: 0.5
  }
}
layer {
  name: "fc7"
  type: "InnerProduct"
  bottom: "fc6"
  top: "fc7"
  param {
    lr_mult: 1
    decay_mult: 1
  }
  param {
    lr_mult: 2
    decay_mult: 0
  }
  inner_product_param {
    num_output: 4096
    weight_filler {
      type: "gaussian"
      std: 0.005
    }
    bias_filler {
      type: "constant"
      value: 1
    }
  }
}
layer {
  name: "relu7"
  type: "ReLU"
  bottom: "fc7"
  top: "fc7"
}
layer {
  name: "drop7"
  type: "Dropout"
  bottom: "fc7"
  top: "fc7"
  dropout_param {
    dropout_ratio: 0.5
  }
}
layer {
  name: "fc8"
  type: "InnerProduct"
  bottom: "fc7"
  top: "fc8"
  param {
    lr_mult: 1
    decay_mult: 1
  }
  param {
    lr_mult: 2
    decay_mult: 0
  }
  inner_product_param {
    num_output: 1000
    weight_filler {
      type: "gaussian"
      std: 0.01
    }
    bias_filler {
      type: "constant"
      value: 0
    }
  }
}
layer {
  name: "loss"
  type: "SoftmaxWithLoss"
  bottom: "fc8"
  bottom: "label"
  top: "loss"
}
I0225 00:09:59.974346   389 layer_factory.hpp:77] Creating layer data
I0225 00:09:59.975185   389 net.cpp:106] Creating Layer data
I0225 00:09:59.975281   389 net.cpp:411] data -> data
I0225 00:09:59.975416   389 net.cpp:411] data -> label
I0225 00:09:59.975522   389 data_transformer.cpp:25] Loading mean file from: data/ilsvrc12/imagenet_mean.binaryproto
I0225 00:10:00.029569   401 db_lmdb.cpp:38] Opened lmdb examples/imagenet/ilsvrc12_train_lmdb
I0225 00:10:00.224346   389 data_layer.cpp:41] output data size: 256,3,227,227
I0225 00:10:00.416720   389 net.cpp:150] Setting up data
I0225 00:10:00.416843   389 net.cpp:157] Top shape: 256 3 227 227 (39574272)
I0225 00:10:00.416935   389 net.cpp:157] Top shape: 256 (256)
I0225 00:10:00.417012   389 net.cpp:165] Memory required for data: 158298112
I0225 00:10:00.417073   389 layer_factory.hpp:77] Creating layer conv1
I0225 00:10:00.417141   389 net.cpp:106] Creating Layer conv1
I0225 00:10:00.417203   389 net.cpp:454] conv1 <- data
I0225 00:10:00.417279   389 net.cpp:411] conv1 -> conv1
I0225 00:10:00.453028   402 blocking_queue.cpp:50] Waiting for data
I0225 00:10:00.559361   389 net.cpp:150] Setting up conv1
I0225 00:10:00.559526   389 net.cpp:157] Top shape: 256 96 55 55 (74342400)
I0225 00:10:00.559675   389 net.cpp:165] Memory required for data: 455667712
I0225 00:10:00.559821   389 layer_factory.hpp:77] Creating layer relu1
I0225 00:10:00.559947   389 net.cpp:106] Creating Layer relu1
I0225 00:10:00.560067   389 net.cpp:454] relu1 <- conv1
I0225 00:10:00.560199   389 net.cpp:397] relu1 -> conv1 (in-place)
I0225 00:10:00.560477   389 net.cpp:150] Setting up relu1
I0225 00:10:00.560560   389 net.cpp:157] Top shape: 256 96 55 55 (74342400)
I0225 00:10:00.560632   389 net.cpp:165] Memory required for data: 753037312
I0225 00:10:00.560761   389 layer_factory.hpp:77] Creating layer pool1
I0225 00:10:00.560909   389 net.cpp:106] Creating Layer pool1
I0225 00:10:00.561022   389 net.cpp:454] pool1 <- conv1
I0225 00:10:00.561182   389 net.cpp:411] pool1 -> pool1
I0225 00:10:00.561359   389 net.cpp:150] Setting up pool1
I0225 00:10:00.561444   389 net.cpp:157] Top shape: 256 96 27 27 (17915904)
I0225 00:10:00.561493   389 net.cpp:165] Memory required for data: 824700928
I0225 00:10:00.561590   389 layer_factory.hpp:77] Creating layer norm1
I0225 00:10:00.561692   389 net.cpp:106] Creating Layer norm1
I0225 00:10:00.561746   389 net.cpp:454] norm1 <- pool1
I0225 00:10:00.561817   389 net.cpp:411] norm1 -> norm1
I0225 00:10:00.562183   389 net.cpp:150] Setting up norm1
I0225 00:10:00.562243   389 net.cpp:157] Top shape: 256 96 27 27 (17915904)
I0225 00:10:00.562299   389 net.cpp:165] Memory required for data: 896364544
I0225 00:10:00.562353   389 layer_factory.hpp:77] Creating layer conv2
I0225 00:10:00.562409   389 net.cpp:106] Creating Layer conv2
I0225 00:10:00.562459   389 net.cpp:454] conv2 <- norm1
I0225 00:10:00.562512   389 net.cpp:411] conv2 -> conv2
I0225 00:10:00.572715   389 net.cpp:150] Setting up conv2
I0225 00:10:00.572787   389 net.cpp:157] Top shape: 256 256 27 27 (47775744)
I0225 00:10:00.572837   389 net.cpp:165] Memory required for data: 1087467520
I0225 00:10:00.572896   389 layer_factory.hpp:77] Creating layer relu2
I0225 00:10:00.572950   389 net.cpp:106] Creating Layer relu2
I0225 00:10:00.572999   389 net.cpp:454] relu2 <- conv2
I0225 00:10:00.573051   389 net.cpp:397] relu2 -> conv2 (in-place)
I0225 00:10:00.573237   389 net.cpp:150] Setting up relu2
I0225 00:10:00.573287   389 net.cpp:157] Top shape: 256 256 27 27 (47775744)
I0225 00:10:00.573335   389 net.cpp:165] Memory required for data: 1278570496
I0225 00:10:00.573385   389 layer_factory.hpp:77] Creating layer pool2
I0225 00:10:00.573436   389 net.cpp:106] Creating Layer pool2
I0225 00:10:00.573479   389 net.cpp:454] pool2 <- conv2
I0225 00:10:00.573529   389 net.cpp:411] pool2 -> pool2
I0225 00:10:00.573611   389 net.cpp:150] Setting up pool2
I0225 00:10:00.573664   389 net.cpp:157] Top shape: 256 256 13 13 (11075584)
I0225 00:10:00.573709   389 net.cpp:165] Memory required for data: 1322872832
I0225 00:10:00.573756   389 layer_factory.hpp:77] Creating layer norm2
I0225 00:10:00.573812   389 net.cpp:106] Creating Layer norm2
I0225 00:10:00.573859   389 net.cpp:454] norm2 <- pool2
I0225 00:10:00.573905   389 net.cpp:411] norm2 -> norm2
I0225 00:10:00.574226   389 net.cpp:150] Setting up norm2
I0225 00:10:00.574296   389 net.cpp:157] Top shape: 256 256 13 13 (11075584)
I0225 00:10:00.574342   389 net.cpp:165] Memory required for data: 1367175168
I0225 00:10:00.574384   389 layer_factory.hpp:77] Creating layer conv3
I0225 00:10:00.574453   389 net.cpp:106] Creating Layer conv3
I0225 00:10:00.574512   389 net.cpp:454] conv3 <- norm2
I0225 00:10:00.574563   389 net.cpp:411] conv3 -> conv3
I0225 00:10:00.599169   389 net.cpp:150] Setting up conv3
I0225 00:10:00.599252   389 net.cpp:157] Top shape: 256 384 13 13 (16613376)
I0225 00:10:00.599306   389 net.cpp:165] Memory required for data: 1433628672
I0225 00:10:00.599396   389 layer_factory.hpp:77] Creating layer relu3
I0225 00:10:00.599475   389 net.cpp:106] Creating Layer relu3
I0225 00:10:00.599527   389 net.cpp:454] relu3 <- conv3
I0225 00:10:00.599581   389 net.cpp:397] relu3 -> conv3 (in-place)
I0225 00:10:00.599874   389 net.cpp:150] Setting up relu3
I0225 00:10:00.599947   389 net.cpp:157] Top shape: 256 384 13 13 (16613376)
I0225 00:10:00.599995   389 net.cpp:165] Memory required for data: 1500082176
I0225 00:10:00.600044   389 layer_factory.hpp:77] Creating layer conv4
I0225 00:10:00.600102   389 net.cpp:106] Creating Layer conv4
I0225 00:10:00.600175   389 net.cpp:454] conv4 <- conv3
I0225 00:10:00.600234   389 net.cpp:411] conv4 -> conv4
I0225 00:10:00.619746   389 net.cpp:150] Setting up conv4
I0225 00:10:00.619823   389 net.cpp:157] Top shape: 256 384 13 13 (16613376)
I0225 00:10:00.619902   389 net.cpp:165] Memory required for data: 1566535680
I0225 00:10:00.619963   389 layer_factory.hpp:77] Creating layer relu4
I0225 00:10:00.620024   389 net.cpp:106] Creating Layer relu4
I0225 00:10:00.620072   389 net.cpp:454] relu4 <- conv4
I0225 00:10:00.620128   389 net.cpp:397] relu4 -> conv4 (in-place)
I0225 00:10:00.620337   389 net.cpp:150] Setting up relu4
I0225 00:10:00.620401   389 net.cpp:157] Top shape: 256 384 13 13 (16613376)
I0225 00:10:00.620453   389 net.cpp:165] Memory required for data: 1632989184
I0225 00:10:00.620506   389 layer_factory.hpp:77] Creating layer conv5
I0225 00:10:00.620580   389 net.cpp:106] Creating Layer conv5
I0225 00:10:00.620653   389 net.cpp:454] conv5 <- conv4
I0225 00:10:00.620707   389 net.cpp:411] conv5 -> conv5
I0225 00:10:00.634310   389 net.cpp:150] Setting up conv5
I0225 00:10:00.634383   389 net.cpp:157] Top shape: 256 256 13 13 (11075584)
I0225 00:10:00.634457   389 net.cpp:165] Memory required for data: 1677291520
I0225 00:10:00.634527   389 layer_factory.hpp:77] Creating layer relu5
I0225 00:10:00.634616   389 net.cpp:106] Creating Layer relu5
I0225 00:10:00.634683   389 net.cpp:454] relu5 <- conv5
I0225 00:10:00.634760   389 net.cpp:397] relu5 -> conv5 (in-place)
I0225 00:10:00.634949   389 net.cpp:150] Setting up relu5
I0225 00:10:00.635006   389 net.cpp:157] Top shape: 256 256 13 13 (11075584)
I0225 00:10:00.635054   389 net.cpp:165] Memory required for data: 1721593856
I0225 00:10:00.635123   389 layer_factory.hpp:77] Creating layer pool5
I0225 00:10:00.635174   389 net.cpp:106] Creating Layer pool5
I0225 00:10:00.635223   389 net.cpp:454] pool5 <- conv5
I0225 00:10:00.635275   389 net.cpp:411] pool5 -> pool5
I0225 00:10:00.635393   389 net.cpp:150] Setting up pool5
I0225 00:10:00.635444   389 net.cpp:157] Top shape: 256 256 6 6 (2359296)
I0225 00:10:00.635488   389 net.cpp:165] Memory required for data: 1731031040
I0225 00:10:00.635532   389 layer_factory.hpp:77] Creating layer fc6
I0225 00:10:00.635619   389 net.cpp:106] Creating Layer fc6
I0225 00:10:00.635664   389 net.cpp:454] fc6 <- pool5
I0225 00:10:00.635715   389 net.cpp:411] fc6 -> fc6
I0225 00:10:01.624403   389 net.cpp:150] Setting up fc6
I0225 00:10:01.624516   389 net.cpp:157] Top shape: 256 4096 (1048576)
I0225 00:10:01.624621   389 net.cpp:165] Memory required for data: 1735225344
I0225 00:10:01.624714   389 layer_factory.hpp:77] Creating layer relu6
I0225 00:10:01.624855   389 net.cpp:106] Creating Layer relu6
I0225 00:10:01.624924   389 net.cpp:454] relu6 <- fc6
I0225 00:10:01.625020   389 net.cpp:397] relu6 -> fc6 (in-place)
I0225 00:10:01.625463   389 net.cpp:150] Setting up relu6
I0225 00:10:01.625572   389 net.cpp:157] Top shape: 256 4096 (1048576)
I0225 00:10:01.625643   389 net.cpp:165] Memory required for data: 1739419648
I0225 00:10:01.625737   389 layer_factory.hpp:77] Creating layer drop6
I0225 00:10:01.625824   389 net.cpp:106] Creating Layer drop6
I0225 00:10:01.625947   389 net.cpp:454] drop6 <- fc6
I0225 00:10:01.625991   389 net.cpp:397] drop6 -> fc6 (in-place)
I0225 00:10:01.626077   389 net.cpp:150] Setting up drop6
I0225 00:10:01.626128   389 net.cpp:157] Top shape: 256 4096 (1048576)
I0225 00:10:01.626175   389 net.cpp:165] Memory required for data: 1743613952
I0225 00:10:01.626217   389 layer_factory.hpp:77] Creating layer fc7
I0225 00:10:01.626263   389 net.cpp:106] Creating Layer fc7
I0225 00:10:01.626309   389 net.cpp:454] fc7 <- fc6
I0225 00:10:01.626358   389 net.cpp:411] fc7 -> fc7
I0225 00:10:02.069560   389 net.cpp:150] Setting up fc7
I0225 00:10:02.069643   389 net.cpp:157] Top shape: 256 4096 (1048576)
I0225 00:10:02.069697   389 net.cpp:165] Memory required for data: 1747808256
I0225 00:10:02.069751   389 layer_factory.hpp:77] Creating layer relu7
I0225 00:10:02.069800   389 net.cpp:106] Creating Layer relu7
I0225 00:10:02.069841   389 net.cpp:454] relu7 <- fc7
I0225 00:10:02.069888   389 net.cpp:397] relu7 -> fc7 (in-place)
I0225 00:10:02.070139   389 net.cpp:150] Setting up relu7
I0225 00:10:02.070183   389 net.cpp:157] Top shape: 256 4096 (1048576)
I0225 00:10:02.070225   389 net.cpp:165] Memory required for data: 1752002560
I0225 00:10:02.070271   389 layer_factory.hpp:77] Creating layer drop7
I0225 00:10:02.070322   389 net.cpp:106] Creating Layer drop7
I0225 00:10:02.070363   389 net.cpp:454] drop7 <- fc7
I0225 00:10:02.070405   389 net.cpp:397] drop7 -> fc7 (in-place)
I0225 00:10:02.070469   389 net.cpp:150] Setting up drop7
I0225 00:10:02.070518   389 net.cpp:157] Top shape: 256 4096 (1048576)
I0225 00:10:02.070560   389 net.cpp:165] Memory required for data: 1756196864
I0225 00:10:02.070608   389 layer_factory.hpp:77] Creating layer fc8
I0225 00:10:02.070659   389 net.cpp:106] Creating Layer fc8
I0225 00:10:02.070731   389 net.cpp:454] fc8 <- fc7
I0225 00:10:02.070793   389 net.cpp:411] fc8 -> fc8
I0225 00:10:02.182371   389 net.cpp:150] Setting up fc8
I0225 00:10:02.182488   389 net.cpp:157] Top shape: 256 1000 (256000)
I0225 00:10:02.182534   389 net.cpp:165] Memory required for data: 1757220864
I0225 00:10:02.182581   389 layer_factory.hpp:77] Creating layer loss
I0225 00:10:02.182631   389 net.cpp:106] Creating Layer loss
I0225 00:10:02.182683   389 net.cpp:454] loss <- fc8
I0225 00:10:02.182754   389 net.cpp:454] loss <- label
I0225 00:10:02.182804   389 net.cpp:411] loss -> loss
I0225 00:10:02.182860   389 layer_factory.hpp:77] Creating layer loss
…
I0225 00:10:02.188381   389 net.cpp:322] The NetState phase (1) differed from the phase (0) specified by a rule in layer data
I0225 00:10:02.188750   389 net.cpp:49] Initializing net from parameters: 
name: "CaffeNet"
state {
  phase: TEST
}
layer {
  name: "data"
  type: "Data"
  top: "data"
  top: "label"
  include {
    phase: TEST
  }
  transform_param {
    mirror: false
    crop_size: 227
    mean_file: "data/ilsvrc12/imagenet_mean.binaryproto"
  }
  data_param {
    source: "examples/imagenet/ilsvrc12_val_lmdb"
    batch_size: 50
    backend: LMDB
  }
}
layer {
  name: "conv1"
  type: "Convolution"
  bottom: "data"
  top: "conv1"
  param {
    lr_mult: 1
    decay_mult: 1
  }
  param {
    lr_mult: 2
    decay_mult: 0
  }
  convolution_param {
    num_output: 96
    kernel_size: 11
    stride: 4
    weight_filler {
      type: "gaussian"
      std: 0.01
    }
    bias_filler {
      type: "constant"
      value: 0
    }
  }
}
layer {
  name: "relu1"
  type: "ReLU"
  bottom: "conv1"
  top: "conv1"
}
layer {
  name: "pool1"
  type: "Pooling"
  bottom: "conv1"
  top: "pool1"
  pooling_param {
    pool: MAX
    kernel_size: 3
    stride: 2
  }
}
layer {
  name: "norm1"
  type: "LRN"
  bottom: "pool1"
  top: "norm1"
  lrn_param {
    local_size: 5
    alpha: 0.0001
    beta: 0.75
  }
}
layer {
  name: "conv2"
  type: "Convolution"
  bottom: "norm1"
  top: "conv2"
  param {
    lr_mult: 1
    decay_mult: 1
  }
  param {
    lr_mult: 2
    decay_mult: 0
  }
  convolution_param {
    num_output: 256
    pad: 2
    kernel_size: 5
    group: 2
    weight_filler {
      type: "gaussian"
      std: 0.01
    }
    bias_filler {
      type: "constant"
      value: 1
    }
  }
}
layer {
  name: "relu2"
  type: "ReLU"
  bottom: "conv2"
  top: "conv2"
}
layer {
  name: "pool2"
  type: "Pooling"
  bottom: "conv2"
  top: "pool2"
  pooling_param {
    pool: MAX
    kernel_size: 3
    stride: 2
  }
}
layer {
  name: "norm2"
  type: "LRN"
  bottom: "pool2"
  top: "norm2"
  lrn_param {
    local_size: 5
    alpha: 0.0001
    beta: 0.75
  }
}
layer {
  name: "conv3"
  type: "Convolution"
  bottom: "norm2"
  top: "conv3"
  param {
    lr_mult: 1
    decay_mult: 1
  }
  param {
    lr_mult: 2
    decay_mult: 0
  }
  convolution_param {
    num_output: 384
    pad: 1
    kernel_size: 3
    weight_filler {
      type: "gaussian"
      std: 0.01
    }
    bias_filler {
      type: "constant"
      value: 0
    }
  }
}
layer {
  name: "relu3"
  type: "ReLU"
  bottom: "conv3"
  top: "conv3"
}
layer {
  name: "conv4"
  type: "Convolution"
  bottom: "conv3"
  top: "conv4"
  param {
    lr_mult: 1
    decay_mult: 1
  }
  param {
    lr_mult: 2
    decay_mult: 0
  }
  convolution_param {
    num_output: 384
    pad: 1
    kernel_size: 3
    group: 2
    weight_filler {
      type: "gaussian"
      std: 0.01
    }
    bias_filler {
      type: "constant"
      value: 1
    }
  }
}
layer {
  name: "relu4"
  type: "ReLU"
  bottom: "conv4"
  top: "conv4"
}
layer {
  name: "conv5"
  type: "Convolution"
  bottom: "conv4"
  top: "conv5"
  param {
    lr_mult: 1
    decay_mult: 1
  }
  param {
    lr_mult: 2
    decay_mult: 0
  }
  convolution_param {
    num_output: 256
    pad: 1
    kernel_size: 3
    group: 2
    weight_filler {
      type: "gaussian"
      std: 0.01
    }
    bias_filler {
      type: "constant"
      value: 1
    }
  }
}
layer {
  name: "relu5"
  type: "ReLU"
  bottom: "conv5"
  top: "conv5"
}
layer {
  name: "pool5"
  type: "Pooling"
  bottom: "conv5"
  top: "pool5"
  pooling_param {
    pool: MAX
    kernel_size: 3
    stride: 2
  }
}
layer {
  name: "fc6"
  type: "InnerProduct"
  bottom: "pool5"
  top: "fc6"
  param {
    lr_mult: 1
    decay_mult: 1
  }
  param {
    lr_mult: 2
    decay_mult: 0
  }
  inner_product_param {
    num_output: 4096
    weight_filler {
      type: "gaussian"
      std: 0.005
    }
    bias_filler {
      type: "constant"
      value: 1
    }
  }
}
layer {
  name: "relu6"
  type: "ReLU"
  bottom: "fc6"
  top: "fc6"
}
layer {
  name: "drop6"
  type: "Dropout"
  bottom: "fc6"
  top: "fc6"
  dropout_param {
    dropout_ratio: 0.5
  }
}
layer {
  name: "fc7"
  type: "InnerProduct"
  bottom: "fc6"
  top: "fc7"
  param {
    lr_mult: 1
    decay_mult: 1
  }
  param {
    lr_mult: 2
    decay_mult: 0
  }
  inner_product_param {
    num_output: 4096
    weight_filler {
      type: "gaussian"
      std: 0.005
    }
    bias_filler {
      type: "constant"
      value: 1
    }
  }
}
layer {
  name: "relu7"
  type: "ReLU"
  bottom: "fc7"
  top: "fc7"
}
layer {
  name: "drop7"
  type: "Dropout"
  bottom: "fc7"
  top: "fc7"
  dropout_param {
    dropout_ratio: 0.5
  }
}
layer {
  name: "fc8"
  type: "InnerProduct"
  bottom: "fc7"
  top: "fc8"
  param {
    lr_mult: 1
    decay_mult: 1
  }
  param {
    lr_mult: 2
    decay_mult: 0
  }
  inner_product_param {
    num_output: 1000
    weight_filler {
      type: "gaussian"
      std: 0.01
    }
    bias_filler {
      type: "constant"
      value: 0
    }
  }
}
layer {
  name: "accuracy"
  type: "Accuracy"
  bottom: "fc8"
  bottom: "label"
  top: "accuracy"
  include {
    phase: TEST
  }
}
layer {
  name: "loss"
  type: "SoftmaxWithLoss"
  bottom: "fc8"
  bottom: "label"
  top: "loss"
}
I0225 00:10:02.188998   389 layer_factory.hpp:77] Creating layer data
I0225 00:10:02.189168   389 net.cpp:106] Creating Layer data
I0225 00:10:02.189231   389 net.cpp:411] data -> data
I0225 00:10:02.189291   389 net.cpp:411] data -> label
I0225 00:10:02.189366   389 data_transformer.cpp:25] Loading mean file from: data/ilsvrc12/imagenet_mean.binaryproto
I0225 00:10:02.197528   434 db_lmdb.cpp:38] Opened lmdb examples/imagenet/ilsvrc12_val_lmdb
I0225 00:10:02.197886   389 data_layer.cpp:41] output data size: 50,3,227,227
I0225 00:10:02.236898   389 net.cpp:150] Setting up data
I0225 00:10:02.237026   389 net.cpp:157] Top shape: 50 3 227 227 (7729350)
I0225 00:10:02.237120   389 net.cpp:157] Top shape: 50 (50)
I0225 00:10:02.237176   389 net.cpp:165] Memory required for data: 30917600
I0225 00:10:02.237224   389 layer_factory.hpp:77] Creating layer label_data_1_split
I0225 00:10:02.237282   389 net.cpp:106] Creating Layer label_data_1_split
I0225 00:10:02.237329   389 net.cpp:454] label_data_1_split <- label
I0225 00:10:02.237378   389 net.cpp:411] label_data_1_split -> label_data_1_split_0
I0225 00:10:02.237426   389 net.cpp:411] label_data_1_split -> label_data_1_split_1
I0225 00:10:02.237519   389 net.cpp:150] Setting up label_data_1_split
I0225 00:10:02.237566   389 net.cpp:157] Top shape: 50 (50)
I0225 00:10:02.237612   389 net.cpp:157] Top shape: 50 (50)
I0225 00:10:02.237649   389 net.cpp:165] Memory required for data: 30918000
I0225 00:10:02.237699   389 layer_factory.hpp:77] Creating layer conv1
I0225 00:10:02.237751   389 net.cpp:106] Creating Layer conv1
I0225 00:10:02.237799   389 net.cpp:454] conv1 <- data
I0225 00:10:02.237849   389 net.cpp:411] conv1 -> conv1
I0225 00:10:02.242276   389 net.cpp:150] Setting up conv1
I0225 00:10:02.242369   389 net.cpp:157] Top shape: 50 96 55 55 (14520000)
I0225 00:10:02.242422   389 net.cpp:165] Memory required for data: 88998000
I0225 00:10:02.242480   389 layer_factory.hpp:77] Creating layer relu1
I0225 00:10:02.242530   389 net.cpp:106] Creating Layer relu1
I0225 00:10:02.242574   389 net.cpp:454] relu1 <- conv1
I0225 00:10:02.242625   389 net.cpp:397] relu1 -> conv1 (in-place)
I0225 00:10:02.242799   389 net.cpp:150] Setting up relu1
I0225 00:10:02.242857   389 net.cpp:157] Top shape: 50 96 55 55 (14520000)
I0225 00:10:02.242905   389 net.cpp:165] Memory required for data: 147078000
I0225 00:10:02.242947   389 layer_factory.hpp:77] Creating layer pool1
I0225 00:10:02.242991   389 net.cpp:106] Creating Layer pool1
I0225 00:10:02.243031   389 net.cpp:454] pool1 <- conv1
I0225 00:10:02.243074   389 net.cpp:411] pool1 -> pool1
I0225 00:10:02.243155   389 net.cpp:150] Setting up pool1
I0225 00:10:02.243198   389 net.cpp:157] Top shape: 50 96 27 27 (3499200)
I0225 00:10:02.243238   389 net.cpp:165] Memory required for data: 161074800
I0225 00:10:02.243280   389 layer_factory.hpp:77] Creating layer norm1
I0225 00:10:02.243324   389 net.cpp:106] Creating Layer norm1
I0225 00:10:02.243363   389 net.cpp:454] norm1 <- pool1
I0225 00:10:02.243428   389 net.cpp:411] norm1 -> norm1
I0225 00:10:02.243767   389 net.cpp:150] Setting up norm1
I0225 00:10:02.243820   389 net.cpp:157] Top shape: 50 96 27 27 (3499200)
I0225 00:10:02.243861   389 net.cpp:165] Memory required for data: 175071600
I0225 00:10:02.243918   389 layer_factory.hpp:77] Creating layer conv2
I0225 00:10:02.243978   389 net.cpp:106] Creating Layer conv2
I0225 00:10:02.244024   389 net.cpp:454] conv2 <- norm1
I0225 00:10:02.244068   389 net.cpp:411] conv2 -> conv2
I0225 00:10:02.253948   389 net.cpp:150] Setting up conv2
I0225 00:10:02.254045   389 net.cpp:157] Top shape: 50 256 27 27 (9331200)
I0225 00:10:02.254097   389 net.cpp:165] Memory required for data: 212396400
I0225 00:10:02.254159   389 layer_factory.hpp:77] Creating layer relu2
I0225 00:10:02.254220   389 net.cpp:106] Creating Layer relu2
I0225 00:10:02.254269   389 net.cpp:454] relu2 <- conv2
I0225 00:10:02.254315   389 net.cpp:397] relu2 -> conv2 (in-place)
I0225 00:10:02.254639   389 net.cpp:150] Setting up relu2
I0225 00:10:02.254717   389 net.cpp:157] Top shape: 50 256 27 27 (9331200)
I0225 00:10:02.254763   389 net.cpp:165] Memory required for data: 249721200
I0225 00:10:02.254812   389 layer_factory.hpp:77] Creating layer pool2
I0225 00:10:02.254868   389 net.cpp:106] Creating Layer pool2
I0225 00:10:02.254922   389 net.cpp:454] pool2 <- conv2
I0225 00:10:02.254971   389 net.cpp:411] pool2 -> pool2
I0225 00:10:02.255058   389 net.cpp:150] Setting up pool2
I0225 00:10:02.255103   389 net.cpp:157] Top shape: 50 256 13 13 (2163200)
I0225 00:10:02.255146   389 net.cpp:165] Memory required for data: 258374000
I0225 00:10:02.255192   389 layer_factory.hpp:77] Creating layer norm2
I0225 00:10:02.255241   389 net.cpp:106] Creating Layer norm2
I0225 00:10:02.255290   389 net.cpp:454] norm2 <- pool2
I0225 00:10:02.255347   389 net.cpp:411] norm2 -> norm2
I0225 00:10:02.255573   389 net.cpp:150] Setting up norm2
I0225 00:10:02.255622   389 net.cpp:157] Top shape: 50 256 13 13 (2163200)
I0225 00:10:02.255667   389 net.cpp:165] Memory required for data: 267026800
I0225 00:10:02.255708   389 layer_factory.hpp:77] Creating layer conv3
I0225 00:10:02.255758   389 net.cpp:106] Creating Layer conv3
I0225 00:10:02.255805   389 net.cpp:454] conv3 <- norm2
I0225 00:10:02.255856   389 net.cpp:411] conv3 -> conv3
I0225 00:10:02.281761   389 net.cpp:150] Setting up conv3
I0225 00:10:02.281880   389 net.cpp:157] Top shape: 50 384 13 13 (3244800)
I0225 00:10:02.281949   389 net.cpp:165] Memory required for data: 280006000
I0225 00:10:02.282027   389 layer_factory.hpp:77] Creating layer relu3
I0225 00:10:02.282117   389 net.cpp:106] Creating Layer relu3
I0225 00:10:02.282165   389 net.cpp:454] relu3 <- conv3
I0225 00:10:02.282239   389 net.cpp:397] relu3 -> conv3 (in-place)
I0225 00:10:02.282553   389 net.cpp:150] Setting up relu3
I0225 00:10:02.282639   389 net.cpp:157] Top shape: 50 384 13 13 (3244800)
I0225 00:10:02.282716   389 net.cpp:165] Memory required for data: 292985200
I0225 00:10:02.282784   389 layer_factory.hpp:77] Creating layer conv4
I0225 00:10:02.282832   389 net.cpp:106] Creating Layer conv4
I0225 00:10:02.282872   389 net.cpp:454] conv4 <- conv3
I0225 00:10:02.282917   389 net.cpp:411] conv4 -> conv4
I0225 00:10:02.303225   389 net.cpp:150] Setting up conv4
I0225 00:10:02.303321   389 net.cpp:157] Top shape: 50 384 13 13 (3244800)
I0225 00:10:02.303374   389 net.cpp:165] Memory required for data: 305964400
I0225 00:10:02.303434   389 layer_factory.hpp:77] Creating layer relu4
I0225 00:10:02.303483   389 net.cpp:106] Creating Layer relu4
I0225 00:10:02.303526   389 net.cpp:454] relu4 <- conv4
I0225 00:10:02.303570   389 net.cpp:397] relu4 -> conv4 (in-place)
I0225 00:10:02.303915   389 net.cpp:150] Setting up relu4
I0225 00:10:02.303966   389 net.cpp:157] Top shape: 50 384 13 13 (3244800)
I0225 00:10:02.304008   389 net.cpp:165] Memory required for data: 318943600
I0225 00:10:02.304049   389 layer_factory.hpp:77] Creating layer conv5
I0225 00:10:02.304100   389 net.cpp:106] Creating Layer conv5
I0225 00:10:02.304141   389 net.cpp:454] conv5 <- conv4
I0225 00:10:02.304185   389 net.cpp:411] conv5 -> conv5
I0225 00:10:02.318579   389 net.cpp:150] Setting up conv5
I0225 00:10:02.318665   389 net.cpp:157] Top shape: 50 256 13 13 (2163200)
I0225 00:10:02.318711   389 net.cpp:165] Memory required for data: 327596400
I0225 00:10:02.318768   389 layer_factory.hpp:77] Creating layer relu5
I0225 00:10:02.318817   389 net.cpp:106] Creating Layer relu5
I0225 00:10:02.318866   389 net.cpp:454] relu5 <- conv5
I0225 00:10:02.318909   389 net.cpp:397] relu5 -> conv5 (in-place)
I0225 00:10:02.319130   389 net.cpp:150] Setting up relu5
I0225 00:10:02.319176   389 net.cpp:157] Top shape: 50 256 13 13 (2163200)
I0225 00:10:02.319217   389 net.cpp:165] Memory required for data: 336249200
I0225 00:10:02.319258   389 layer_factory.hpp:77] Creating layer pool5
I0225 00:10:02.319304   389 net.cpp:106] Creating Layer pool5
I0225 00:10:02.319344   389 net.cpp:454] pool5 <- conv5
I0225 00:10:02.319392   389 net.cpp:411] pool5 -> pool5
I0225 00:10:02.319536   389 net.cpp:150] Setting up pool5
I0225 00:10:02.319582   389 net.cpp:157] Top shape: 50 256 6 6 (460800)
I0225 00:10:02.319623   389 net.cpp:165] Memory required for data: 338092400
I0225 00:10:02.319664   389 layer_factory.hpp:77] Creating layer fc6
I0225 00:10:02.319715   389 net.cpp:106] Creating Layer fc6
I0225 00:10:02.319756   389 net.cpp:454] fc6 <- pool5
I0225 00:10:02.319798   389 net.cpp:411] fc6 -> fc6
I0225 00:10:03.310315   389 net.cpp:150] Setting up fc6
I0225 00:10:03.310454   389 net.cpp:157] Top shape: 50 4096 (204800)
I0225 00:10:03.310580   389 net.cpp:165] Memory required for data: 338911600
I0225 00:10:03.310684   389 layer_factory.hpp:77] Creating layer relu6
I0225 00:10:03.310782   389 net.cpp:106] Creating Layer relu6
I0225 00:10:03.310873   389 net.cpp:454] relu6 <- fc6
I0225 00:10:03.311002   389 net.cpp:397] relu6 -> fc6 (in-place)
I0225 00:10:03.311460   389 net.cpp:150] Setting up relu6
I0225 00:10:03.311544   389 net.cpp:157] Top shape: 50 4096 (204800)
I0225 00:10:03.311674   389 net.cpp:165] Memory required for data: 339730800
I0225 00:10:03.311849   389 layer_factory.hpp:77] Creating layer drop6
I0225 00:10:03.312022   389 net.cpp:106] Creating Layer drop6
I0225 00:10:03.312163   389 net.cpp:454] drop6 <- fc6
I0225 00:10:03.312295   389 net.cpp:397] drop6 -> fc6 (in-place)
I0225 00:10:03.312487   389 net.cpp:150] Setting up drop6
I0225 00:10:03.312533   389 net.cpp:157] Top shape: 50 4096 (204800)
I0225 00:10:03.312573   389 net.cpp:165] Memory required for data: 340550000
I0225 00:10:03.312613   389 layer_factory.hpp:77] Creating layer fc7
I0225 00:10:03.312682   389 net.cpp:106] Creating Layer fc7
I0225 00:10:03.312722   389 net.cpp:454] fc7 <- fc6
I0225 00:10:03.312763   389 net.cpp:411] fc7 -> fc7
I0225 00:10:03.752140   389 net.cpp:150] Setting up fc7
I0225 00:10:03.752270   389 net.cpp:157] Top shape: 50 4096 (204800)
I0225 00:10:03.752334   389 net.cpp:165] Memory required for data: 341369200
I0225 00:10:03.752410   389 layer_factory.hpp:77] Creating layer relu7
I0225 00:10:03.752468   389 net.cpp:106] Creating Layer relu7
I0225 00:10:03.752575   389 net.cpp:454] relu7 <- fc7
I0225 00:10:03.752671   389 net.cpp:397] relu7 -> fc7 (in-place)
I0225 00:10:03.752909   389 net.cpp:150] Setting up relu7
I0225 00:10:03.752990   389 net.cpp:157] Top shape: 50 4096 (204800)
I0225 00:10:03.753096   389 net.cpp:165] Memory required for data: 342188400
I0225 00:10:03.753190   389 layer_factory.hpp:77] Creating layer drop7
I0225 00:10:03.753262   389 net.cpp:106] Creating Layer drop7
I0225 00:10:03.753484   389 net.cpp:454] drop7 <- fc7
I0225 00:10:03.753535   389 net.cpp:397] drop7 -> fc7 (in-place)
I0225 00:10:03.753675   389 net.cpp:150] Setting up drop7
I0225 00:10:03.753746   389 net.cpp:157] Top shape: 50 4096 (204800)
I0225 00:10:03.753808   389 net.cpp:165] Memory required for data: 343007600
I0225 00:10:03.753875   389 layer_factory.hpp:77] Creating layer fc8
I0225 00:10:03.753919   389 net.cpp:106] Creating Layer fc8
I0225 00:10:03.753958   389 net.cpp:454] fc8 <- fc7
I0225 00:10:03.753999   389 net.cpp:411] fc8 -> fc8
I0225 00:10:03.861541   389 net.cpp:150] Setting up fc8
I0225 00:10:03.861676   389 net.cpp:157] Top shape: 50 1000 (50000)
I0225 00:10:03.861773   389 net.cpp:165] Memory required for data: 343207600
I0225 00:10:03.861908   389 layer_factory.hpp:77] Creating layer fc8_fc8_0_split
I0225 00:10:03.862033   389 net.cpp:106] Creating Layer fc8_fc8_0_split
I0225 00:10:03.862128   389 net.cpp:454] fc8_fc8_0_split <- fc8
I0225 00:10:03.862212   389 net.cpp:411] fc8_fc8_0_split -> fc8_fc8_0_split_0
I0225 00:10:03.862298   389 net.cpp:411] fc8_fc8_0_split -> fc8_fc8_0_split_1
I0225 00:10:03.862399   389 net.cpp:150] Setting up fc8_fc8_0_split
I0225 00:10:03.862494   389 net.cpp:157] Top shape: 50 1000 (50000)
I0225 00:10:03.862557   389 net.cpp:157] Top shape: 50 1000 (50000)
I0225 00:10:03.862604   389 net.cpp:165] Memory required for data: 343607600
I0225 00:10:03.862646   389 layer_factory.hpp:77] Creating layer accuracy
I0225 00:10:03.862694   389 net.cpp:106] Creating Layer accuracy
I0225 00:10:03.862782   389 net.cpp:454] accuracy <- fc8_fc8_0_split_0
I0225 00:10:03.862823   389 net.cpp:454] accuracy <- label_data_1_split_0
I0225 00:10:03.862870   389 net.cpp:411] accuracy -> accuracy
…
